{"format": "graph-model", "generatedBy": "2.21.0", "convertedBy": "TensorFlow.js Converter v4.22.0", "signature": {"inputs": {"keras_tensor_182": {"name": "keras_tensor_182:0", "dtype": "DT_FLOAT", "tensorShape": {"dim": [{"size": "-1"}, {"size": "224"}, {"size": "224"}, {"size": "3"}]}}}, "outputs": {"output_0": {"name": "Identity:0", "dtype": "DT_FLOAT", "tensorShape": {"dim": [{"size": "-1"}, {"size": "7"}]}}}}, "modelTopology": {"node": [{"name": "ConstantFolding/StatefulPartitionedCall/functional_1_1/MobileNetV3Small_1/activation_17_1/truediv_recip", "op": "Const", "attr": {"value": {"tensor": {"dtype": "DT_FLOAT", "tensorShape": {}}}, "dtype": {"type": "DT_FLOAT"}}}, {"name": "StatefulPartitionedCall/functional_1_1/MobileNetV3Small_1/expanded_conv_10_project_bn_1/batchnorm/sub", "op": "Const", "attr": {"value": {"tensor": {"dtype": "DT_FLOAT", "tensorShape": {"dim": [{"size": "96"}]}}}, "dtype": {"type": "DT_FLOAT"}}}, {"name": "StatefulPartitionedCall/functional_1_1/MobileNetV3Small_1/Const_17", "op": "Const", "attr": {"value": {"tensor": {"dtype": "DT_FLOAT", "tensorShape": {}}}, "dtype": {"type": "DT_FLOAT"}}}, {"name": "StatefulPartitionedCall/functional_1_1/MobileNetV3Small_1/expanded_conv_10_squeeze_excite_avg_pool_1/Mean/reduction_indices", "op": "Const", "attr": {"value": {"tensor": {"dtype": "DT_INT32", "tensorShape": {"dim": [{"size": "2"}]}}}, "dtype": {"type": "DT_INT32"}}}, {"name": "StatefulPartitionedCall/functional_1_1/MobileNetV3Small_1/expanded_conv_10_squeeze_excite_conv_1/convolution/ReadVariableOp", "op": "Const", "attr": {"value": {"tensor": {"dtype": "DT_FLOAT", "tensorShape": {"dim": [{"size": "1"}, {"size": "1"}, {"size": "576"}, {"size": "144"}]}}}, "dtype": {"type": "DT_FLOAT"}}}, {"name": "StatefulPartitionedCall/functional_1_1/MobileNetV3Small_1/expanded_conv_10_squeeze_excite_conv_1/Squeeze", "op": "Const", "attr": {"value": {"tensor": {"dtype": "DT_FLOAT", "tensorShape": {"dim": [{"size": "144"}]}}}, "dtype": {"type": "DT_FLOAT"}}}, {"name": "StatefulPartitionedCall/functional_1_1/MobileNetV3Small_1/expanded_conv_10_squeeze_excite_conv_1_2/convolution/ReadVariableOp", "op": "Const", "attr": {"value": {"tensor": {"dtype": "DT_FLOAT", "tensorShape": {"dim": [{"size": "1"}, {"size": "1"}, {"size": "144"}, {"size": "576"}]}}}, "dtype": {"type": "DT_FLOAT"}}}, {"name": "StatefulPartitionedCall/functional_1_1/MobileNetV3Small_1/expanded_conv_10_squeeze_excite_conv_1_2/Squeeze", "op": "Const", "attr": {"value": {"tensor": {"dtype": "DT_FLOAT", "tensorShape": {"dim": [{"size": "576"}]}}}, "dtype": {"type": "DT_FLOAT"}}}, {"name": "StatefulPartitionedCall/functional_1_1/MobileNetV3Small_1/Const_16", "op": "Const", "attr": {"value": {"tensor": {"dtype": "DT_FLOAT", "tensorShape": {}}}, "dtype": {"type": "DT_FLOAT"}}}, {"name": "ConstantFolding/StatefulPartitionedCall/functional_1_1/MobileNetV3Small_1/activation_16_1/truediv_recip", "op": "Const", "attr": {"value": {"tensor": {"dtype": "DT_FLOAT", "tensorShape": {}}}, "dtype": {"type": "DT_FLOAT"}}}, {"name": "ConstantFolding/StatefulPartitionedCall/functional_1_1/MobileNetV3Small_1/activation_15_1/truediv_recip", "op": "Const", "attr": {"value": {"tensor": {"dtype": "DT_FLOAT", "tensorShape": {}}}, "dtype": {"type": "DT_FLOAT"}}}, {"name": "StatefulPartitionedCall/functional_1_1/MobileNetV3Small_1/expanded_conv_9_project_bn_1/batchnorm/sub", "op": "Const", "attr": {"value": {"tensor": {"dtype": "DT_FLOAT", "tensorShape": {"dim": [{"size": "96"}]}}}, "dtype": {"type": "DT_FLOAT"}}}, {"name": "StatefulPartitionedCall/functional_1_1/MobileNetV3Small_1/Const_15", "op": "Const", "attr": {"value": {"tensor": {"dtype": "DT_FLOAT", "tensorShape": {}}}, "dtype": {"type": "DT_FLOAT"}}}, {"name": "StatefulPartitionedCall/functional_1_1/MobileNetV3Small_1/expanded_conv_9_squeeze_excite_avg_pool_1/Mean/reduction_indices", "op": "Const", "attr": {"value": {"tensor": {"dtype": "DT_INT32", "tensorShape": {"dim": [{"size": "2"}]}}}, "dtype": {"type": "DT_INT32"}}}, {"name": "StatefulPartitionedCall/functional_1_1/MobileNetV3Small_1/expanded_conv_9_squeeze_excite_conv_1/convolution/ReadVariableOp", "op": "Const", "attr": {"value": {"tensor": {"dtype": "DT_FLOAT", "tensorShape": {"dim": [{"size": "1"}, {"size": "1"}, {"size": "576"}, {"size": "144"}]}}}, "dtype": {"type": "DT_FLOAT"}}}, {"name": "StatefulPartitionedCall/functional_1_1/MobileNetV3Small_1/expanded_conv_9_squeeze_excite_conv_1/Squeeze", "op": "Const", "attr": {"value": {"tensor": {"dtype": "DT_FLOAT", "tensorShape": {"dim": [{"size": "144"}]}}}, "dtype": {"type": "DT_FLOAT"}}}, {"name": "StatefulPartitionedCall/functional_1_1/MobileNetV3Small_1/expanded_conv_9_squeeze_excite_conv_1_2/convolution/ReadVariableOp", "op": "Const", "attr": {"value": {"tensor": {"dtype": "DT_FLOAT", "tensorShape": {"dim": [{"size": "1"}, {"size": "1"}, {"size": "144"}, {"size": "576"}]}}}, "dtype": {"type": "DT_FLOAT"}}}, {"name": "StatefulPartitionedCall/functional_1_1/MobileNetV3Small_1/expanded_conv_9_squeeze_excite_conv_1_2/Squeeze", "op": "Const", "attr": {"value": {"tensor": {"dtype": "DT_FLOAT", "tensorShape": {"dim": [{"size": "576"}]}}}, "dtype": {"type": "DT_FLOAT"}}}, {"name": "StatefulPartitionedCall/functional_1_1/MobileNetV3Small_1/Const_14", "op": "Const", "attr": {"value": {"tensor": {"dtype": "DT_FLOAT", "tensorShape": {}}}, "dtype": {"type": "DT_FLOAT"}}}, {"name": "ConstantFolding/StatefulPartitionedCall/functional_1_1/MobileNetV3Small_1/activation_14_1/truediv_recip", "op": "Const", "attr": {"value": {"tensor": {"dtype": "DT_FLOAT", "tensorShape": {}}}, "dtype": {"type": "DT_FLOAT"}}}, {"name": "ConstantFolding/StatefulPartitionedCall/functional_1_1/MobileNetV3Small_1/activation_13_1/truediv_recip", "op": "Const", "attr": {"value": {"tensor": {"dtype": "DT_FLOAT", "tensorShape": {}}}, "dtype": {"type": "DT_FLOAT"}}}, {"name": "StatefulPartitionedCall/functional_1_1/MobileNetV3Small_1/Const_13", "op": "Const", "attr": {"value": {"tensor": {"dtype": "DT_FLOAT", "tensorShape": {}}}, "dtype": {"type": "DT_FLOAT"}}}, {"name": "StatefulPartitionedCall/functional_1_1/MobileNetV3Small_1/expanded_conv_8_squeeze_excite_avg_pool_1/Mean/reduction_indices", "op": "Const", "attr": {"value": {"tensor": {"dtype": "DT_INT32", "tensorShape": {"dim": [{"size": "2"}]}}}, "dtype": {"type": "DT_INT32"}}}, {"name": "StatefulPartitionedCall/functional_1_1/MobileNetV3Small_1/expanded_conv_8_squeeze_excite_conv_1/convolution/ReadVariableOp", "op": "Const", "attr": {"value": {"tensor": {"dtype": "DT_FLOAT", "tensorShape": {"dim": [{"size": "1"}, {"size": "1"}, {"size": "288"}, {"size": "72"}]}}}, "dtype": {"type": "DT_FLOAT"}}}, {"name": "StatefulPartitionedCall/functional_1_1/MobileNetV3Small_1/expanded_conv_8_squeeze_excite_conv_1/Squeeze", "op": "Const", "attr": {"value": {"tensor": {"dtype": "DT_FLOAT", "tensorShape": {"dim": [{"size": "72"}]}}}, "dtype": {"type": "DT_FLOAT"}}}, {"name": "StatefulPartitionedCall/functional_1_1/MobileNetV3Small_1/expanded_conv_8_squeeze_excite_conv_1_2/convolution/ReadVariableOp", "op": "Const", "attr": {"value": {"tensor": {"dtype": "DT_FLOAT", "tensorShape": {"dim": [{"size": "1"}, {"size": "1"}, {"size": "72"}, {"size": "288"}]}}}, "dtype": {"type": "DT_FLOAT"}}}, {"name": "StatefulPartitionedCall/functional_1_1/MobileNetV3Small_1/expanded_conv_8_squeeze_excite_conv_1_2/Squeeze", "op": "Const", "attr": {"value": {"tensor": {"dtype": "DT_FLOAT", "tensorShape": {"dim": [{"size": "288"}]}}}, "dtype": {"type": "DT_FLOAT"}}}, {"name": "StatefulPartitionedCall/functional_1_1/MobileNetV3Small_1/Const_12", "op": "Const", "attr": {"value": {"tensor": {"dtype": "DT_FLOAT", "tensorShape": {}}}, "dtype": {"type": "DT_FLOAT"}}}, {"name": "ConstantFolding/StatefulPartitionedCall/functional_1_1/MobileNetV3Small_1/activation_12_1/truediv_recip", "op": "Const", "attr": {"value": {"tensor": {"dtype": "DT_FLOAT", "tensorShape": {}}}, "dtype": {"type": "DT_FLOAT"}}}, {"name": "ConstantFolding/StatefulPartitionedCall/functional_1_1/MobileNetV3Small_1/activation_11_1/truediv_recip", "op": "Const", "attr": {"value": {"tensor": {"dtype": "DT_FLOAT", "tensorShape": {}}}, "dtype": {"type": "DT_FLOAT"}}}, {"name": "StatefulPartitionedCall/functional_1_1/MobileNetV3Small_1/expanded_conv_7_project_bn_1/batchnorm/sub", "op": "Const", "attr": {"value": {"tensor": {"dtype": "DT_FLOAT", "tensorShape": {"dim": [{"size": "48"}]}}}, "dtype": {"type": "DT_FLOAT"}}}, {"name": "StatefulPartitionedCall/functional_1_1/MobileNetV3Small_1/Const_11", "op": "Const", "attr": {"value": {"tensor": {"dtype": "DT_FLOAT", "tensorShape": {}}}, "dtype": {"type": "DT_FLOAT"}}}, {"name": "StatefulPartitionedCall/functional_1_1/MobileNetV3Small_1/expanded_conv_7_squeeze_excite_avg_pool_1/Mean/reduction_indices", "op": "Const", "attr": {"value": {"tensor": {"dtype": "DT_INT32", "tensorShape": {"dim": [{"size": "2"}]}}}, "dtype": {"type": "DT_INT32"}}}, {"name": "StatefulPartitionedCall/functional_1_1/MobileNetV3Small_1/expanded_conv_7_squeeze_excite_conv_1/convolution/ReadVariableOp", "op": "Const", "attr": {"value": {"tensor": {"dtype": "DT_FLOAT", "tensorShape": {"dim": [{"size": "1"}, {"size": "1"}, {"size": "144"}, {"size": "40"}]}}}, "dtype": {"type": "DT_FLOAT"}}}, {"name": "StatefulPartitionedCall/functional_1_1/MobileNetV3Small_1/expanded_conv_7_squeeze_excite_conv_1/Squeeze", "op": "Const", "attr": {"value": {"tensor": {"dtype": "DT_FLOAT", "tensorShape": {"dim": [{"size": "40"}]}}}, "dtype": {"type": "DT_FLOAT"}}}, {"name": "StatefulPartitionedCall/functional_1_1/MobileNetV3Small_1/expanded_conv_7_squeeze_excite_conv_1_2/convolution/ReadVariableOp", "op": "Const", "attr": {"value": {"tensor": {"dtype": "DT_FLOAT", "tensorShape": {"dim": [{"size": "1"}, {"size": "1"}, {"size": "40"}, {"size": "144"}]}}}, "dtype": {"type": "DT_FLOAT"}}}, {"name": "StatefulPartitionedCall/functional_1_1/MobileNetV3Small_1/expanded_conv_7_squeeze_excite_conv_1_2/Squeeze", "op": "Const", "attr": {"value": {"tensor": {"dtype": "DT_FLOAT", "tensorShape": {"dim": [{"size": "144"}]}}}, "dtype": {"type": "DT_FLOAT"}}}, {"name": "StatefulPartitionedCall/functional_1_1/MobileNetV3Small_1/Const_10", "op": "Const", "attr": {"value": {"tensor": {"dtype": "DT_FLOAT", "tensorShape": {}}}, "dtype": {"type": "DT_FLOAT"}}}, {"name": "ConstantFolding/StatefulPartitionedCall/functional_1_1/MobileNetV3Small_1/activation_10_1/truediv_recip", "op": "Const", "attr": {"value": {"tensor": {"dtype": "DT_FLOAT", "tensorShape": {}}}, "dtype": {"type": "DT_FLOAT"}}}, {"name": "ConstantFolding/StatefulPartitionedCall/functional_1_1/MobileNetV3Small_1/activation_9_1/truediv_recip", "op": "Const", "attr": {"value": {"tensor": {"dtype": "DT_FLOAT", "tensorShape": {}}}, "dtype": {"type": "DT_FLOAT"}}}, {"name": "StatefulPartitionedCall/functional_1_1/MobileNetV3Small_1/Const_9", "op": "Const", "attr": {"value": {"tensor": {"dtype": "DT_FLOAT", "tensorShape": {}}}, "dtype": {"type": "DT_FLOAT"}}}, {"name": "StatefulPartitionedCall/functional_1_1/MobileNetV3Small_1/expanded_conv_6_squeeze_excite_avg_pool_1/Mean/reduction_indices", "op": "Const", "attr": {"value": {"tensor": {"dtype": "DT_INT32", "tensorShape": {"dim": [{"size": "2"}]}}}, "dtype": {"type": "DT_INT32"}}}, {"name": "StatefulPartitionedCall/functional_1_1/MobileNetV3Small_1/expanded_conv_6_squeeze_excite_conv_1/convolution/ReadVariableOp", "op": "Const", "attr": {"value": {"tensor": {"dtype": "DT_FLOAT", "tensorShape": {"dim": [{"size": "1"}, {"size": "1"}, {"size": "120"}, {"size": "32"}]}}}, "dtype": {"type": "DT_FLOAT"}}}, {"name": "StatefulPartitionedCall/functional_1_1/MobileNetV3Small_1/expanded_conv_6_squeeze_excite_conv_1/Squeeze", "op": "Const", "attr": {"value": {"tensor": {"dtype": "DT_FLOAT", "tensorShape": {"dim": [{"size": "32"}]}}}, "dtype": {"type": "DT_FLOAT"}}}, {"name": "StatefulPartitionedCall/functional_1_1/MobileNetV3Small_1/expanded_conv_6_squeeze_excite_conv_1_2/convolution/ReadVariableOp", "op": "Const", "attr": {"value": {"tensor": {"dtype": "DT_FLOAT", "tensorShape": {"dim": [{"size": "1"}, {"size": "1"}, {"size": "32"}, {"size": "120"}]}}}, "dtype": {"type": "DT_FLOAT"}}}, {"name": "StatefulPartitionedCall/functional_1_1/MobileNetV3Small_1/expanded_conv_6_squeeze_excite_conv_1_2/Squeeze", "op": "Const", "attr": {"value": {"tensor": {"dtype": "DT_FLOAT", "tensorShape": {"dim": [{"size": "120"}]}}}, "dtype": {"type": "DT_FLOAT"}}}, {"name": "StatefulPartitionedCall/functional_1_1/MobileNetV3Small_1/Const_8", "op": "Const", "attr": {"value": {"tensor": {"dtype": "DT_FLOAT", "tensorShape": {}}}, "dtype": {"type": "DT_FLOAT"}}}, {"name": "ConstantFolding/StatefulPartitionedCall/functional_1_1/MobileNetV3Small_1/activation_8_1/truediv_recip", "op": "Const", "attr": {"value": {"tensor": {"dtype": "DT_FLOAT", "tensorShape": {}}}, "dtype": {"type": "DT_FLOAT"}}}, {"name": "ConstantFolding/StatefulPartitionedCall/functional_1_1/MobileNetV3Small_1/activation_7_1/truediv_recip", "op": "Const", "attr": {"value": {"tensor": {"dtype": "DT_FLOAT", "tensorShape": {}}}, "dtype": {"type": "DT_FLOAT"}}}, {"name": "StatefulPartitionedCall/functional_1_1/MobileNetV3Small_1/expanded_conv_5_project_bn_1/batchnorm/sub", "op": "Const", "attr": {"value": {"tensor": {"dtype": "DT_FLOAT", "tensorShape": {"dim": [{"size": "40"}]}}}, "dtype": {"type": "DT_FLOAT"}}}, {"name": "StatefulPartitionedCall/functional_1_1/MobileNetV3Small_1/Const_7", "op": "Const", "attr": {"value": {"tensor": {"dtype": "DT_FLOAT", "tensorShape": {}}}, "dtype": {"type": "DT_FLOAT"}}}, {"name": "StatefulPartitionedCall/functional_1_1/MobileNetV3Small_1/expanded_conv_5_squeeze_excite_avg_pool_1/Mean/reduction_indices", "op": "Const", "attr": {"value": {"tensor": {"dtype": "DT_INT32", "tensorShape": {"dim": [{"size": "2"}]}}}, "dtype": {"type": "DT_INT32"}}}, {"name": "StatefulPartitionedCall/functional_1_1/MobileNetV3Small_1/expanded_conv_5_squeeze_excite_conv_1/convolution/ReadVariableOp", "op": "Const", "attr": {"value": {"tensor": {"dtype": "DT_FLOAT", "tensorShape": {"dim": [{"size": "1"}, {"size": "1"}, {"size": "240"}, {"size": "64"}]}}}, "dtype": {"type": "DT_FLOAT"}}}, {"name": "StatefulPartitionedCall/functional_1_1/MobileNetV3Small_1/expanded_conv_5_squeeze_excite_conv_1/Squeeze", "op": "Const", "attr": {"value": {"tensor": {"dtype": "DT_FLOAT", "tensorShape": {"dim": [{"size": "64"}]}}}, "dtype": {"type": "DT_FLOAT"}}}, {"name": "StatefulPartitionedCall/functional_1_1/MobileNetV3Small_1/expanded_conv_5_squeeze_excite_conv_1_2/convolution/ReadVariableOp", "op": "Const", "attr": {"value": {"tensor": {"dtype": "DT_FLOAT", "tensorShape": {"dim": [{"size": "1"}, {"size": "1"}, {"size": "64"}, {"size": "240"}]}}}, "dtype": {"type": "DT_FLOAT"}}}, {"name": "StatefulPartitionedCall/functional_1_1/MobileNetV3Small_1/expanded_conv_5_squeeze_excite_conv_1_2/Squeeze", "op": "Const", "attr": {"value": {"tensor": {"dtype": "DT_FLOAT", "tensorShape": {"dim": [{"size": "240"}]}}}, "dtype": {"type": "DT_FLOAT"}}}, {"name": "StatefulPartitionedCall/functional_1_1/MobileNetV3Small_1/Const_6", "op": "Const", "attr": {"value": {"tensor": {"dtype": "DT_FLOAT", "tensorShape": {}}}, "dtype": {"type": "DT_FLOAT"}}}, {"name": "ConstantFolding/StatefulPartitionedCall/functional_1_1/MobileNetV3Small_1/activation_6_1/truediv_recip", "op": "Const", "attr": {"value": {"tensor": {"dtype": "DT_FLOAT", "tensorShape": {}}}, "dtype": {"type": "DT_FLOAT"}}}, {"name": "ConstantFolding/StatefulPartitionedCall/functional_1_1/MobileNetV3Small_1/activation_5_1/truediv_recip", "op": "Const", "attr": {"value": {"tensor": {"dtype": "DT_FLOAT", "tensorShape": {}}}, "dtype": {"type": "DT_FLOAT"}}}, {"name": "StatefulPartitionedCall/functional_1_1/MobileNetV3Small_1/expanded_conv_4_project_bn_1/batchnorm/sub", "op": "Const", "attr": {"value": {"tensor": {"dtype": "DT_FLOAT", "tensorShape": {"dim": [{"size": "40"}]}}}, "dtype": {"type": "DT_FLOAT"}}}, {"name": "StatefulPartitionedCall/functional_1_1/MobileNetV3Small_1/Const_5", "op": "Const", "attr": {"value": {"tensor": {"dtype": "DT_FLOAT", "tensorShape": {}}}, "dtype": {"type": "DT_FLOAT"}}}, {"name": "StatefulPartitionedCall/functional_1_1/MobileNetV3Small_1/expanded_conv_4_squeeze_excite_avg_pool_1/Mean/reduction_indices", "op": "Const", "attr": {"value": {"tensor": {"dtype": "DT_INT32", "tensorShape": {"dim": [{"size": "2"}]}}}, "dtype": {"type": "DT_INT32"}}}, {"name": "StatefulPartitionedCall/functional_1_1/MobileNetV3Small_1/expanded_conv_4_squeeze_excite_conv_1/convolution/ReadVariableOp", "op": "Const", "attr": {"value": {"tensor": {"dtype": "DT_FLOAT", "tensorShape": {"dim": [{"size": "1"}, {"size": "1"}, {"size": "240"}, {"size": "64"}]}}}, "dtype": {"type": "DT_FLOAT"}}}, {"name": "StatefulPartitionedCall/functional_1_1/MobileNetV3Small_1/expanded_conv_4_squeeze_excite_conv_1/Squeeze", "op": "Const", "attr": {"value": {"tensor": {"dtype": "DT_FLOAT", "tensorShape": {"dim": [{"size": "64"}]}}}, "dtype": {"type": "DT_FLOAT"}}}, {"name": "StatefulPartitionedCall/functional_1_1/MobileNetV3Small_1/expanded_conv_4_squeeze_excite_conv_1_2/convolution/ReadVariableOp", "op": "Const", "attr": {"value": {"tensor": {"dtype": "DT_FLOAT", "tensorShape": {"dim": [{"size": "1"}, {"size": "1"}, {"size": "64"}, {"size": "240"}]}}}, "dtype": {"type": "DT_FLOAT"}}}, {"name": "StatefulPartitionedCall/functional_1_1/MobileNetV3Small_1/expanded_conv_4_squeeze_excite_conv_1_2/Squeeze", "op": "Const", "attr": {"value": {"tensor": {"dtype": "DT_FLOAT", "tensorShape": {"dim": [{"size": "240"}]}}}, "dtype": {"type": "DT_FLOAT"}}}, {"name": "StatefulPartitionedCall/functional_1_1/MobileNetV3Small_1/Const_4", "op": "Const", "attr": {"value": {"tensor": {"dtype": "DT_FLOAT", "tensorShape": {}}}, "dtype": {"type": "DT_FLOAT"}}}, {"name": "ConstantFolding/StatefulPartitionedCall/functional_1_1/MobileNetV3Small_1/activation_4_1/truediv_recip", "op": "Const", "attr": {"value": {"tensor": {"dtype": "DT_FLOAT", "tensorShape": {}}}, "dtype": {"type": "DT_FLOAT"}}}, {"name": "ConstantFolding/StatefulPartitionedCall/functional_1_1/MobileNetV3Small_1/activation_3_1/truediv_recip", "op": "Const", "attr": {"value": {"tensor": {"dtype": "DT_FLOAT", "tensorShape": {}}}, "dtype": {"type": "DT_FLOAT"}}}, {"name": "StatefulPartitionedCall/functional_1_1/MobileNetV3Small_1/Const_3", "op": "Const", "attr": {"value": {"tensor": {"dtype": "DT_FLOAT", "tensorShape": {}}}, "dtype": {"type": "DT_FLOAT"}}}, {"name": "StatefulPartitionedCall/functional_1_1/MobileNetV3Small_1/expanded_conv_3_squeeze_excite_avg_pool_1/Mean/reduction_indices", "op": "Const", "attr": {"value": {"tensor": {"dtype": "DT_INT32", "tensorShape": {"dim": [{"size": "2"}]}}}, "dtype": {"type": "DT_INT32"}}}, {"name": "StatefulPartitionedCall/functional_1_1/MobileNetV3Small_1/expanded_conv_3_squeeze_excite_conv_1/convolution/ReadVariableOp", "op": "Const", "attr": {"value": {"tensor": {"dtype": "DT_FLOAT", "tensorShape": {"dim": [{"size": "1"}, {"size": "1"}, {"size": "96"}, {"size": "24"}]}}}, "dtype": {"type": "DT_FLOAT"}}}, {"name": "StatefulPartitionedCall/functional_1_1/MobileNetV3Small_1/expanded_conv_3_squeeze_excite_conv_1/Squeeze", "op": "Const", "attr": {"value": {"tensor": {"dtype": "DT_FLOAT", "tensorShape": {"dim": [{"size": "24"}]}}}, "dtype": {"type": "DT_FLOAT"}}}, {"name": "StatefulPartitionedCall/functional_1_1/MobileNetV3Small_1/expanded_conv_3_squeeze_excite_conv_1_2/convolution/ReadVariableOp", "op": "Const", "attr": {"value": {"tensor": {"dtype": "DT_FLOAT", "tensorShape": {"dim": [{"size": "1"}, {"size": "1"}, {"size": "24"}, {"size": "96"}]}}}, "dtype": {"type": "DT_FLOAT"}}}, {"name": "StatefulPartitionedCall/functional_1_1/MobileNetV3Small_1/expanded_conv_3_squeeze_excite_conv_1_2/Squeeze", "op": "Const", "attr": {"value": {"tensor": {"dtype": "DT_FLOAT", "tensorShape": {"dim": [{"size": "96"}]}}}, "dtype": {"type": "DT_FLOAT"}}}, {"name": "StatefulPartitionedCall/functional_1_1/MobileNetV3Small_1/Const_2", "op": "Const", "attr": {"value": {"tensor": {"dtype": "DT_FLOAT", "tensorShape": {}}}, "dtype": {"type": "DT_FLOAT"}}}, {"name": "ConstantFolding/StatefulPartitionedCall/functional_1_1/MobileNetV3Small_1/activation_2_1/truediv_recip", "op": "Const", "attr": {"value": {"tensor": {"dtype": "DT_FLOAT", "tensorShape": {}}}, "dtype": {"type": "DT_FLOAT"}}}, {"name": "ConstantFolding/StatefulPartitionedCall/functional_1_1/MobileNetV3Small_1/activation_1_2/truediv_recip", "op": "Const", "attr": {"value": {"tensor": {"dtype": "DT_FLOAT", "tensorShape": {}}}, "dtype": {"type": "DT_FLOAT"}}}, {"name": "StatefulPartitionedCall/functional_1_1/MobileNetV3Small_1/expanded_conv_2_project_bn_1/batchnorm/sub", "op": "Const", "attr": {"value": {"tensor": {"dtype": "DT_FLOAT", "tensorShape": {"dim": [{"size": "24"}]}}}, "dtype": {"type": "DT_FLOAT"}}}, {"name": "StatefulPartitionedCall/functional_1_1/MobileNetV3Small_1/Const_1", "op": "Const", "attr": {"value": {"tensor": {"dtype": "DT_FLOAT", "tensorShape": {}}}, "dtype": {"type": "DT_FLOAT"}}}, {"name": "StatefulPartitionedCall/functional_1_1/MobileNetV3Small_1/expanded_conv_squeeze_excite_avg_pool_1/Mean/reduction_indices", "op": "Const", "attr": {"value": {"tensor": {"dtype": "DT_INT32", "tensorShape": {"dim": [{"size": "2"}]}}}, "dtype": {"type": "DT_INT32"}}}, {"name": "StatefulPartitionedCall/functional_1_1/MobileNetV3Small_1/expanded_conv_squeeze_excite_conv_1/convolution/ReadVariableOp", "op": "Const", "attr": {"value": {"tensor": {"dtype": "DT_FLOAT", "tensorShape": {"dim": [{"size": "1"}, {"size": "1"}, {"size": "16"}, {"size": "8"}]}}}, "dtype": {"type": "DT_FLOAT"}}}, {"name": "StatefulPartitionedCall/functional_1_1/MobileNetV3Small_1/expanded_conv_squeeze_excite_conv_1/Squeeze", "op": "Const", "attr": {"value": {"tensor": {"dtype": "DT_FLOAT", "tensorShape": {"dim": [{"size": "8"}]}}}, "dtype": {"type": "DT_FLOAT"}}}, {"name": "StatefulPartitionedCall/functional_1_1/MobileNetV3Small_1/expanded_conv_squeeze_excite_conv_1_2/convolution/ReadVariableOp", "op": "Const", "attr": {"value": {"tensor": {"dtype": "DT_FLOAT", "tensorShape": {"dim": [{"size": "1"}, {"size": "1"}, {"size": "8"}, {"size": "16"}]}}}, "dtype": {"type": "DT_FLOAT"}}}, {"name": "StatefulPartitionedCall/functional_1_1/MobileNetV3Small_1/expanded_conv_squeeze_excite_conv_1_2/Squeeze", "op": "Const", "attr": {"value": {"tensor": {"dtype": "DT_FLOAT", "tensorShape": {"dim": [{"size": "16"}]}}}, "dtype": {"type": "DT_FLOAT"}}}, {"name": "StatefulPartitionedCall/functional_1_1/MobileNetV3Small_1/Const", "op": "Const", "attr": {"value": {"tensor": {"dtype": "DT_FLOAT", "tensorShape": {}}}, "dtype": {"type": "DT_FLOAT"}}}, {"name": "ConstantFolding/StatefulPartitionedCall/functional_1_1/MobileNetV3Small_1/activation_1/truediv_recip", "op": "Const", "attr": {"value": {"tensor": {"dtype": "DT_FLOAT", "tensorShape": {}}}, "dtype": {"type": "DT_FLOAT"}}}, {"name": "StatefulPartitionedCall/functional_1_1/rescaling_1_1/Cast/x", "op": "Const", "attr": {"value": {"tensor": {"dtype": "DT_FLOAT", "tensorShape": {}}}, "dtype": {"type": "DT_FLOAT"}}}, {"name": "StatefulPartitionedCall/functional_1_1/rescaling_1_1/Cast_1", "op": "Const", "attr": {"value": {"tensor": {"dtype": "DT_FLOAT", "tensorShape": {}}}, "dtype": {"type": "DT_FLOAT"}}}, {"name": "StatefulPartitionedCall/functional_1_1/MobileNetV3Small_1/rescaling_1/Cast/x", "op": "Const", "attr": {"value": {"tensor": {"dtype": "DT_FLOAT", "tensorShape": {}}}, "dtype": {"type": "DT_FLOAT"}}}, {"name": "StatefulPartitionedCall/functional_1_1/MobileNetV3Small_1/rescaling_1/Cast_1/x", "op": "Const", "attr": {"value": {"tensor": {"dtype": "DT_FLOAT", "tensorShape": {}}}, "dtype": {"type": "DT_FLOAT"}}}, {"name": "StatefulPartitionedCall/functional_1_1/MobileNetV3Small_1/conv_1/convolution/merged_input", "op": "Const", "attr": {"value": {"tensor": {"dtype": "DT_FLOAT", "tensorShape": {"dim": [{"size": "3"}, {"size": "3"}, {"size": "3"}, {"size": "16"}]}}}, "dtype": {"type": "DT_FLOAT"}}}, {"name": "StatefulPartitionedCall/functional_1_1/MobileNetV3Small_1/conv_bn_1/batchnorm/sub", "op": "Const", "attr": {"value": {"tensor": {"dtype": "DT_FLOAT", "tensorShape": {"dim": [{"size": "16"}]}}}, "dtype": {"type": "DT_FLOAT"}}}, {"name": "StatefulPartitionedCall/functional_1_1/MobileNetV3Small_1/activation_1/Const", "op": "Const", "attr": {"value": {"tensor": {"dtype": "DT_FLOAT", "tensorShape": {}}}, "dtype": {"type": "DT_FLOAT"}}}, {"name": "StatefulPartitionedCall/functional_1_1/MobileNetV3Small_1/expanded_conv_depthwise_pad_1/Const", "op": "Const", "attr": {"value": {"tensor": {"dtype": "DT_INT32", "tensorShape": {"dim": [{"size": "4"}, {"size": "2"}]}}}, "dtype": {"type": "DT_INT32"}}}, {"name": "StatefulPartitionedCall/functional_1_1/MobileNetV3Small_1/expanded_conv_depthwise_1/depthwise/ReadVariableOp", "op": "Const", "attr": {"value": {"tensor": {"dtype": "DT_FLOAT", "tensorShape": {"dim": [{"size": "3"}, {"size": "3"}, {"size": "16"}, {"size": "1"}]}}}, "dtype": {"type": "DT_FLOAT"}}}, {"name": "StatefulPartitionedCall/functional_1_1/MobileNetV3Small_1/expanded_conv_depthwise_bn_1/batchnorm/mul", "op": "Const", "attr": {"value": {"tensor": {"dtype": "DT_FLOAT", "tensorShape": {"dim": [{"size": "16"}]}}}, "dtype": {"type": "DT_FLOAT"}}}, {"name": "StatefulPartitionedCall/functional_1_1/MobileNetV3Small_1/expanded_conv_depthwise_bn_1/batchnorm/sub", "op": "Const", "attr": {"value": {"tensor": {"dtype": "DT_FLOAT", "tensorShape": {"dim": [{"size": "16"}]}}}, "dtype": {"type": "DT_FLOAT"}}}, {"name": "StatefulPartitionedCall/functional_1_1/MobileNetV3Small_1/expanded_conv_project_1/convolution/merged_input", "op": "Const", "attr": {"value": {"tensor": {"dtype": "DT_FLOAT", "tensorShape": {"dim": [{"size": "1"}, {"size": "1"}, {"size": "16"}, {"size": "16"}]}}}, "dtype": {"type": "DT_FLOAT"}}}, {"name": "StatefulPartitionedCall/functional_1_1/MobileNetV3Small_1/expanded_conv_project_bn_1/batchnorm/sub", "op": "Const", "attr": {"value": {"tensor": {"dtype": "DT_FLOAT", "tensorShape": {"dim": [{"size": "16"}]}}}, "dtype": {"type": "DT_FLOAT"}}}, {"name": "StatefulPartitionedCall/functional_1_1/MobileNetV3Small_1/expanded_conv_1_expand_1/convolution/merged_input", "op": "Const", "attr": {"value": {"tensor": {"dtype": "DT_FLOAT", "tensorShape": {"dim": [{"size": "1"}, {"size": "1"}, {"size": "16"}, {"size": "72"}]}}}, "dtype": {"type": "DT_FLOAT"}}}, {"name": "StatefulPartitionedCall/functional_1_1/MobileNetV3Small_1/expanded_conv_1_expand_bn_1/batchnorm/sub", "op": "Const", "attr": {"value": {"tensor": {"dtype": "DT_FLOAT", "tensorShape": {"dim": [{"size": "72"}]}}}, "dtype": {"type": "DT_FLOAT"}}}, {"name": "StatefulPartitionedCall/functional_1_1/MobileNetV3Small_1/expanded_conv_1_depthwise_pad_1/Const", "op": "Const", "attr": {"value": {"tensor": {"dtype": "DT_INT32", "tensorShape": {"dim": [{"size": "4"}, {"size": "2"}]}}}, "dtype": {"type": "DT_INT32"}}}, {"name": "StatefulPartitionedCall/functional_1_1/MobileNetV3Small_1/expanded_conv_1_depthwise_1/depthwise/ReadVariableOp", "op": "Const", "attr": {"value": {"tensor": {"dtype": "DT_FLOAT", "tensorShape": {"dim": [{"size": "3"}, {"size": "3"}, {"size": "72"}, {"size": "1"}]}}}, "dtype": {"type": "DT_FLOAT"}}}, {"name": "StatefulPartitionedCall/functional_1_1/MobileNetV3Small_1/expanded_conv_1_depthwise_bn_1/batchnorm/mul", "op": "Const", "attr": {"value": {"tensor": {"dtype": "DT_FLOAT", "tensorShape": {"dim": [{"size": "72"}]}}}, "dtype": {"type": "DT_FLOAT"}}}, {"name": "StatefulPartitionedCall/functional_1_1/MobileNetV3Small_1/expanded_conv_1_depthwise_bn_1/batchnorm/sub", "op": "Const", "attr": {"value": {"tensor": {"dtype": "DT_FLOAT", "tensorShape": {"dim": [{"size": "72"}]}}}, "dtype": {"type": "DT_FLOAT"}}}, {"name": "StatefulPartitionedCall/functional_1_1/MobileNetV3Small_1/expanded_conv_1_project_1/convolution/merged_input", "op": "Const", "attr": {"value": {"tensor": {"dtype": "DT_FLOAT", "tensorShape": {"dim": [{"size": "1"}, {"size": "1"}, {"size": "72"}, {"size": "24"}]}}}, "dtype": {"type": "DT_FLOAT"}}}, {"name": "StatefulPartitionedCall/functional_1_1/MobileNetV3Small_1/expanded_conv_1_project_bn_1/batchnorm/sub", "op": "Const", "attr": {"value": {"tensor": {"dtype": "DT_FLOAT", "tensorShape": {"dim": [{"size": "24"}]}}}, "dtype": {"type": "DT_FLOAT"}}}, {"name": "StatefulPartitionedCall/functional_1_1/MobileNetV3Small_1/expanded_conv_2_expand_1/convolution/merged_input", "op": "Const", "attr": {"value": {"tensor": {"dtype": "DT_FLOAT", "tensorShape": {"dim": [{"size": "1"}, {"size": "1"}, {"size": "24"}, {"size": "88"}]}}}, "dtype": {"type": "DT_FLOAT"}}}, {"name": "StatefulPartitionedCall/functional_1_1/MobileNetV3Small_1/expanded_conv_2_expand_bn_1/batchnorm/sub", "op": "Const", "attr": {"value": {"tensor": {"dtype": "DT_FLOAT", "tensorShape": {"dim": [{"size": "88"}]}}}, "dtype": {"type": "DT_FLOAT"}}}, {"name": "StatefulPartitionedCall/functional_1_1/MobileNetV3Small_1/expanded_conv_2_depthwise_1/depthwise/ReadVariableOp", "op": "Const", "attr": {"value": {"tensor": {"dtype": "DT_FLOAT", "tensorShape": {"dim": [{"size": "3"}, {"size": "3"}, {"size": "88"}, {"size": "1"}]}}}, "dtype": {"type": "DT_FLOAT"}}}, {"name": "StatefulPartitionedCall/functional_1_1/MobileNetV3Small_1/expanded_conv_2_depthwise_bn_1/batchnorm/mul", "op": "Const", "attr": {"value": {"tensor": {"dtype": "DT_FLOAT", "tensorShape": {"dim": [{"size": "88"}]}}}, "dtype": {"type": "DT_FLOAT"}}}, {"name": "StatefulPartitionedCall/functional_1_1/MobileNetV3Small_1/expanded_conv_2_depthwise_bn_1/batchnorm/sub", "op": "Const", "attr": {"value": {"tensor": {"dtype": "DT_FLOAT", "tensorShape": {"dim": [{"size": "88"}]}}}, "dtype": {"type": "DT_FLOAT"}}}, {"name": "StatefulPartitionedCall/functional_1_1/MobileNetV3Small_1/expanded_conv_2_project_1/convolution/merged_input", "op": "Const", "attr": {"value": {"tensor": {"dtype": "DT_FLOAT", "tensorShape": {"dim": [{"size": "1"}, {"size": "1"}, {"size": "88"}, {"size": "24"}]}}}, "dtype": {"type": "DT_FLOAT"}}}, {"name": "StatefulPartitionedCall/functional_1_1/MobileNetV3Small_1/expanded_conv_3_expand_1/convolution/merged_input", "op": "Const", "attr": {"value": {"tensor": {"dtype": "DT_FLOAT", "tensorShape": {"dim": [{"size": "1"}, {"size": "1"}, {"size": "24"}, {"size": "96"}]}}}, "dtype": {"type": "DT_FLOAT"}}}, {"name": "StatefulPartitionedCall/functional_1_1/MobileNetV3Small_1/expanded_conv_3_expand_bn_1/batchnorm/sub", "op": "Const", "attr": {"value": {"tensor": {"dtype": "DT_FLOAT", "tensorShape": {"dim": [{"size": "96"}]}}}, "dtype": {"type": "DT_FLOAT"}}}, {"name": "StatefulPartitionedCall/functional_1_1/MobileNetV3Small_1/activation_1_2/Const", "op": "Const", "attr": {"value": {"tensor": {"dtype": "DT_FLOAT", "tensorShape": {}}}, "dtype": {"type": "DT_FLOAT"}}}, {"name": "StatefulPartitionedCall/functional_1_1/MobileNetV3Small_1/expanded_conv_3_depthwise_pad_1/Const", "op": "Const", "attr": {"value": {"tensor": {"dtype": "DT_INT32", "tensorShape": {"dim": [{"size": "4"}, {"size": "2"}]}}}, "dtype": {"type": "DT_INT32"}}}, {"name": "StatefulPartitionedCall/functional_1_1/MobileNetV3Small_1/expanded_conv_3_depthwise_1/depthwise/ReadVariableOp", "op": "Const", "attr": {"value": {"tensor": {"dtype": "DT_FLOAT", "tensorShape": {"dim": [{"size": "5"}, {"size": "5"}, {"size": "96"}, {"size": "1"}]}}}, "dtype": {"type": "DT_FLOAT"}}}, {"name": "StatefulPartitionedCall/functional_1_1/MobileNetV3Small_1/expanded_conv_3_depthwise_bn_1/batchnorm/mul", "op": "Const", "attr": {"value": {"tensor": {"dtype": "DT_FLOAT", "tensorShape": {"dim": [{"size": "96"}]}}}, "dtype": {"type": "DT_FLOAT"}}}, {"name": "StatefulPartitionedCall/functional_1_1/MobileNetV3Small_1/expanded_conv_3_depthwise_bn_1/batchnorm/sub", "op": "Const", "attr": {"value": {"tensor": {"dtype": "DT_FLOAT", "tensorShape": {"dim": [{"size": "96"}]}}}, "dtype": {"type": "DT_FLOAT"}}}, {"name": "StatefulPartitionedCall/functional_1_1/MobileNetV3Small_1/activation_2_1/Const", "op": "Const", "attr": {"value": {"tensor": {"dtype": "DT_FLOAT", "tensorShape": {}}}, "dtype": {"type": "DT_FLOAT"}}}, {"name": "StatefulPartitionedCall/functional_1_1/MobileNetV3Small_1/expanded_conv_3_project_1/convolution/merged_input", "op": "Const", "attr": {"value": {"tensor": {"dtype": "DT_FLOAT", "tensorShape": {"dim": [{"size": "1"}, {"size": "1"}, {"size": "96"}, {"size": "40"}]}}}, "dtype": {"type": "DT_FLOAT"}}}, {"name": "StatefulPartitionedCall/functional_1_1/MobileNetV3Small_1/expanded_conv_3_project_bn_1/batchnorm/sub", "op": "Const", "attr": {"value": {"tensor": {"dtype": "DT_FLOAT", "tensorShape": {"dim": [{"size": "40"}]}}}, "dtype": {"type": "DT_FLOAT"}}}, {"name": "StatefulPartitionedCall/functional_1_1/MobileNetV3Small_1/expanded_conv_4_expand_1/convolution/merged_input", "op": "Const", "attr": {"value": {"tensor": {"dtype": "DT_FLOAT", "tensorShape": {"dim": [{"size": "1"}, {"size": "1"}, {"size": "40"}, {"size": "240"}]}}}, "dtype": {"type": "DT_FLOAT"}}}, {"name": "StatefulPartitionedCall/functional_1_1/MobileNetV3Small_1/expanded_conv_4_expand_bn_1/batchnorm/sub", "op": "Const", "attr": {"value": {"tensor": {"dtype": "DT_FLOAT", "tensorShape": {"dim": [{"size": "240"}]}}}, "dtype": {"type": "DT_FLOAT"}}}, {"name": "StatefulPartitionedCall/functional_1_1/MobileNetV3Small_1/activation_3_1/Const", "op": "Const", "attr": {"value": {"tensor": {"dtype": "DT_FLOAT", "tensorShape": {}}}, "dtype": {"type": "DT_FLOAT"}}}, {"name": "StatefulPartitionedCall/functional_1_1/MobileNetV3Small_1/expanded_conv_4_depthwise_1/depthwise/ReadVariableOp", "op": "Const", "attr": {"value": {"tensor": {"dtype": "DT_FLOAT", "tensorShape": {"dim": [{"size": "5"}, {"size": "5"}, {"size": "240"}, {"size": "1"}]}}}, "dtype": {"type": "DT_FLOAT"}}}, {"name": "StatefulPartitionedCall/functional_1_1/MobileNetV3Small_1/expanded_conv_4_depthwise_bn_1/batchnorm/mul", "op": "Const", "attr": {"value": {"tensor": {"dtype": "DT_FLOAT", "tensorShape": {"dim": [{"size": "240"}]}}}, "dtype": {"type": "DT_FLOAT"}}}, {"name": "StatefulPartitionedCall/functional_1_1/MobileNetV3Small_1/expanded_conv_4_depthwise_bn_1/batchnorm/sub", "op": "Const", "attr": {"value": {"tensor": {"dtype": "DT_FLOAT", "tensorShape": {"dim": [{"size": "240"}]}}}, "dtype": {"type": "DT_FLOAT"}}}, {"name": "StatefulPartitionedCall/functional_1_1/MobileNetV3Small_1/activation_4_1/Const", "op": "Const", "attr": {"value": {"tensor": {"dtype": "DT_FLOAT", "tensorShape": {}}}, "dtype": {"type": "DT_FLOAT"}}}, {"name": "StatefulPartitionedCall/functional_1_1/MobileNetV3Small_1/expanded_conv_4_project_1/convolution/merged_input", "op": "Const", "attr": {"value": {"tensor": {"dtype": "DT_FLOAT", "tensorShape": {"dim": [{"size": "1"}, {"size": "1"}, {"size": "240"}, {"size": "40"}]}}}, "dtype": {"type": "DT_FLOAT"}}}, {"name": "StatefulPartitionedCall/functional_1_1/MobileNetV3Small_1/expanded_conv_5_expand_1/convolution/merged_input", "op": "Const", "attr": {"value": {"tensor": {"dtype": "DT_FLOAT", "tensorShape": {"dim": [{"size": "1"}, {"size": "1"}, {"size": "40"}, {"size": "240"}]}}}, "dtype": {"type": "DT_FLOAT"}}}, {"name": "StatefulPartitionedCall/functional_1_1/MobileNetV3Small_1/expanded_conv_5_expand_bn_1/batchnorm/sub", "op": "Const", "attr": {"value": {"tensor": {"dtype": "DT_FLOAT", "tensorShape": {"dim": [{"size": "240"}]}}}, "dtype": {"type": "DT_FLOAT"}}}, {"name": "StatefulPartitionedCall/functional_1_1/MobileNetV3Small_1/activation_5_1/Const", "op": "Const", "attr": {"value": {"tensor": {"dtype": "DT_FLOAT", "tensorShape": {}}}, "dtype": {"type": "DT_FLOAT"}}}, {"name": "StatefulPartitionedCall/functional_1_1/MobileNetV3Small_1/expanded_conv_5_depthwise_1/depthwise/ReadVariableOp", "op": "Const", "attr": {"value": {"tensor": {"dtype": "DT_FLOAT", "tensorShape": {"dim": [{"size": "5"}, {"size": "5"}, {"size": "240"}, {"size": "1"}]}}}, "dtype": {"type": "DT_FLOAT"}}}, {"name": "StatefulPartitionedCall/functional_1_1/MobileNetV3Small_1/expanded_conv_5_depthwise_bn_1/batchnorm/mul", "op": "Const", "attr": {"value": {"tensor": {"dtype": "DT_FLOAT", "tensorShape": {"dim": [{"size": "240"}]}}}, "dtype": {"type": "DT_FLOAT"}}}, {"name": "StatefulPartitionedCall/functional_1_1/MobileNetV3Small_1/expanded_conv_5_depthwise_bn_1/batchnorm/sub", "op": "Const", "attr": {"value": {"tensor": {"dtype": "DT_FLOAT", "tensorShape": {"dim": [{"size": "240"}]}}}, "dtype": {"type": "DT_FLOAT"}}}, {"name": "StatefulPartitionedCall/functional_1_1/MobileNetV3Small_1/activation_6_1/Const", "op": "Const", "attr": {"value": {"tensor": {"dtype": "DT_FLOAT", "tensorShape": {}}}, "dtype": {"type": "DT_FLOAT"}}}, {"name": "StatefulPartitionedCall/functional_1_1/MobileNetV3Small_1/expanded_conv_5_project_1/convolution/merged_input", "op": "Const", "attr": {"value": {"tensor": {"dtype": "DT_FLOAT", "tensorShape": {"dim": [{"size": "1"}, {"size": "1"}, {"size": "240"}, {"size": "40"}]}}}, "dtype": {"type": "DT_FLOAT"}}}, {"name": "StatefulPartitionedCall/functional_1_1/MobileNetV3Small_1/expanded_conv_6_expand_1/convolution/merged_input", "op": "Const", "attr": {"value": {"tensor": {"dtype": "DT_FLOAT", "tensorShape": {"dim": [{"size": "1"}, {"size": "1"}, {"size": "40"}, {"size": "120"}]}}}, "dtype": {"type": "DT_FLOAT"}}}, {"name": "StatefulPartitionedCall/functional_1_1/MobileNetV3Small_1/expanded_conv_6_expand_bn_1/batchnorm/sub", "op": "Const", "attr": {"value": {"tensor": {"dtype": "DT_FLOAT", "tensorShape": {"dim": [{"size": "120"}]}}}, "dtype": {"type": "DT_FLOAT"}}}, {"name": "StatefulPartitionedCall/functional_1_1/MobileNetV3Small_1/activation_7_1/Const", "op": "Const", "attr": {"value": {"tensor": {"dtype": "DT_FLOAT", "tensorShape": {}}}, "dtype": {"type": "DT_FLOAT"}}}, {"name": "StatefulPartitionedCall/functional_1_1/MobileNetV3Small_1/expanded_conv_6_depthwise_1/depthwise/ReadVariableOp", "op": "Const", "attr": {"value": {"tensor": {"dtype": "DT_FLOAT", "tensorShape": {"dim": [{"size": "5"}, {"size": "5"}, {"size": "120"}, {"size": "1"}]}}}, "dtype": {"type": "DT_FLOAT"}}}, {"name": "StatefulPartitionedCall/functional_1_1/MobileNetV3Small_1/expanded_conv_6_depthwise_bn_1/batchnorm/mul", "op": "Const", "attr": {"value": {"tensor": {"dtype": "DT_FLOAT", "tensorShape": {"dim": [{"size": "120"}]}}}, "dtype": {"type": "DT_FLOAT"}}}, {"name": "StatefulPartitionedCall/functional_1_1/MobileNetV3Small_1/expanded_conv_6_depthwise_bn_1/batchnorm/sub", "op": "Const", "attr": {"value": {"tensor": {"dtype": "DT_FLOAT", "tensorShape": {"dim": [{"size": "120"}]}}}, "dtype": {"type": "DT_FLOAT"}}}, {"name": "StatefulPartitionedCall/functional_1_1/MobileNetV3Small_1/activation_8_1/Const", "op": "Const", "attr": {"value": {"tensor": {"dtype": "DT_FLOAT", "tensorShape": {}}}, "dtype": {"type": "DT_FLOAT"}}}, {"name": "StatefulPartitionedCall/functional_1_1/MobileNetV3Small_1/expanded_conv_6_project_1/convolution/merged_input", "op": "Const", "attr": {"value": {"tensor": {"dtype": "DT_FLOAT", "tensorShape": {"dim": [{"size": "1"}, {"size": "1"}, {"size": "120"}, {"size": "48"}]}}}, "dtype": {"type": "DT_FLOAT"}}}, {"name": "StatefulPartitionedCall/functional_1_1/MobileNetV3Small_1/expanded_conv_6_project_bn_1/batchnorm/sub", "op": "Const", "attr": {"value": {"tensor": {"dtype": "DT_FLOAT", "tensorShape": {"dim": [{"size": "48"}]}}}, "dtype": {"type": "DT_FLOAT"}}}, {"name": "StatefulPartitionedCall/functional_1_1/MobileNetV3Small_1/expanded_conv_7_expand_1/convolution/merged_input", "op": "Const", "attr": {"value": {"tensor": {"dtype": "DT_FLOAT", "tensorShape": {"dim": [{"size": "1"}, {"size": "1"}, {"size": "48"}, {"size": "144"}]}}}, "dtype": {"type": "DT_FLOAT"}}}, {"name": "StatefulPartitionedCall/functional_1_1/MobileNetV3Small_1/expanded_conv_7_expand_bn_1/batchnorm/sub", "op": "Const", "attr": {"value": {"tensor": {"dtype": "DT_FLOAT", "tensorShape": {"dim": [{"size": "144"}]}}}, "dtype": {"type": "DT_FLOAT"}}}, {"name": "StatefulPartitionedCall/functional_1_1/MobileNetV3Small_1/activation_9_1/Const", "op": "Const", "attr": {"value": {"tensor": {"dtype": "DT_FLOAT", "tensorShape": {}}}, "dtype": {"type": "DT_FLOAT"}}}, {"name": "StatefulPartitionedCall/functional_1_1/MobileNetV3Small_1/expanded_conv_7_depthwise_1/depthwise/ReadVariableOp", "op": "Const", "attr": {"value": {"tensor": {"dtype": "DT_FLOAT", "tensorShape": {"dim": [{"size": "5"}, {"size": "5"}, {"size": "144"}, {"size": "1"}]}}}, "dtype": {"type": "DT_FLOAT"}}}, {"name": "StatefulPartitionedCall/functional_1_1/MobileNetV3Small_1/expanded_conv_7_depthwise_bn_1/batchnorm/mul", "op": "Const", "attr": {"value": {"tensor": {"dtype": "DT_FLOAT", "tensorShape": {"dim": [{"size": "144"}]}}}, "dtype": {"type": "DT_FLOAT"}}}, {"name": "StatefulPartitionedCall/functional_1_1/MobileNetV3Small_1/expanded_conv_7_depthwise_bn_1/batchnorm/sub", "op": "Const", "attr": {"value": {"tensor": {"dtype": "DT_FLOAT", "tensorShape": {"dim": [{"size": "144"}]}}}, "dtype": {"type": "DT_FLOAT"}}}, {"name": "StatefulPartitionedCall/functional_1_1/MobileNetV3Small_1/activation_10_1/Const", "op": "Const", "attr": {"value": {"tensor": {"dtype": "DT_FLOAT", "tensorShape": {}}}, "dtype": {"type": "DT_FLOAT"}}}, {"name": "StatefulPartitionedCall/functional_1_1/MobileNetV3Small_1/expanded_conv_7_project_1/convolution/merged_input", "op": "Const", "attr": {"value": {"tensor": {"dtype": "DT_FLOAT", "tensorShape": {"dim": [{"size": "1"}, {"size": "1"}, {"size": "144"}, {"size": "48"}]}}}, "dtype": {"type": "DT_FLOAT"}}}, {"name": "StatefulPartitionedCall/functional_1_1/MobileNetV3Small_1/expanded_conv_8_expand_1/convolution/merged_input", "op": "Const", "attr": {"value": {"tensor": {"dtype": "DT_FLOAT", "tensorShape": {"dim": [{"size": "1"}, {"size": "1"}, {"size": "48"}, {"size": "288"}]}}}, "dtype": {"type": "DT_FLOAT"}}}, {"name": "StatefulPartitionedCall/functional_1_1/MobileNetV3Small_1/expanded_conv_8_expand_bn_1/batchnorm/sub", "op": "Const", "attr": {"value": {"tensor": {"dtype": "DT_FLOAT", "tensorShape": {"dim": [{"size": "288"}]}}}, "dtype": {"type": "DT_FLOAT"}}}, {"name": "StatefulPartitionedCall/functional_1_1/MobileNetV3Small_1/activation_11_1/Const", "op": "Const", "attr": {"value": {"tensor": {"dtype": "DT_FLOAT", "tensorShape": {}}}, "dtype": {"type": "DT_FLOAT"}}}, {"name": "StatefulPartitionedCall/functional_1_1/MobileNetV3Small_1/expanded_conv_8_depthwise_pad_1/Const", "op": "Const", "attr": {"value": {"tensor": {"dtype": "DT_INT32", "tensorShape": {"dim": [{"size": "4"}, {"size": "2"}]}}}, "dtype": {"type": "DT_INT32"}}}, {"name": "StatefulPartitionedCall/functional_1_1/MobileNetV3Small_1/expanded_conv_8_depthwise_1/depthwise/ReadVariableOp", "op": "Const", "attr": {"value": {"tensor": {"dtype": "DT_FLOAT", "tensorShape": {"dim": [{"size": "5"}, {"size": "5"}, {"size": "288"}, {"size": "1"}]}}}, "dtype": {"type": "DT_FLOAT"}}}, {"name": "StatefulPartitionedCall/functional_1_1/MobileNetV3Small_1/expanded_conv_8_depthwise_bn_1/batchnorm/mul", "op": "Const", "attr": {"value": {"tensor": {"dtype": "DT_FLOAT", "tensorShape": {"dim": [{"size": "288"}]}}}, "dtype": {"type": "DT_FLOAT"}}}, {"name": "StatefulPartitionedCall/functional_1_1/MobileNetV3Small_1/expanded_conv_8_depthwise_bn_1/batchnorm/sub", "op": "Const", "attr": {"value": {"tensor": {"dtype": "DT_FLOAT", "tensorShape": {"dim": [{"size": "288"}]}}}, "dtype": {"type": "DT_FLOAT"}}}, {"name": "StatefulPartitionedCall/functional_1_1/MobileNetV3Small_1/activation_12_1/Const", "op": "Const", "attr": {"value": {"tensor": {"dtype": "DT_FLOAT", "tensorShape": {}}}, "dtype": {"type": "DT_FLOAT"}}}, {"name": "StatefulPartitionedCall/functional_1_1/MobileNetV3Small_1/expanded_conv_8_project_1/convolution/merged_input", "op": "Const", "attr": {"value": {"tensor": {"dtype": "DT_FLOAT", "tensorShape": {"dim": [{"size": "1"}, {"size": "1"}, {"size": "288"}, {"size": "96"}]}}}, "dtype": {"type": "DT_FLOAT"}}}, {"name": "StatefulPartitionedCall/functional_1_1/MobileNetV3Small_1/expanded_conv_8_project_bn_1/batchnorm/sub", "op": "Const", "attr": {"value": {"tensor": {"dtype": "DT_FLOAT", "tensorShape": {"dim": [{"size": "96"}]}}}, "dtype": {"type": "DT_FLOAT"}}}, {"name": "StatefulPartitionedCall/functional_1_1/MobileNetV3Small_1/expanded_conv_9_expand_1/convolution/merged_input", "op": "Const", "attr": {"value": {"tensor": {"dtype": "DT_FLOAT", "tensorShape": {"dim": [{"size": "1"}, {"size": "1"}, {"size": "96"}, {"size": "576"}]}}}, "dtype": {"type": "DT_FLOAT"}}}, {"name": "StatefulPartitionedCall/functional_1_1/MobileNetV3Small_1/expanded_conv_9_expand_bn_1/batchnorm/sub", "op": "Const", "attr": {"value": {"tensor": {"dtype": "DT_FLOAT", "tensorShape": {"dim": [{"size": "576"}]}}}, "dtype": {"type": "DT_FLOAT"}}}, {"name": "StatefulPartitionedCall/functional_1_1/MobileNetV3Small_1/activation_13_1/Const", "op": "Const", "attr": {"value": {"tensor": {"dtype": "DT_FLOAT", "tensorShape": {}}}, "dtype": {"type": "DT_FLOAT"}}}, {"name": "StatefulPartitionedCall/functional_1_1/MobileNetV3Small_1/expanded_conv_9_depthwise_1/depthwise/ReadVariableOp", "op": "Const", "attr": {"value": {"tensor": {"dtype": "DT_FLOAT", "tensorShape": {"dim": [{"size": "5"}, {"size": "5"}, {"size": "576"}, {"size": "1"}]}}}, "dtype": {"type": "DT_FLOAT"}}}, {"name": "StatefulPartitionedCall/functional_1_1/MobileNetV3Small_1/expanded_conv_9_depthwise_bn_1/batchnorm/mul", "op": "Const", "attr": {"value": {"tensor": {"dtype": "DT_FLOAT", "tensorShape": {"dim": [{"size": "576"}]}}}, "dtype": {"type": "DT_FLOAT"}}}, {"name": "StatefulPartitionedCall/functional_1_1/MobileNetV3Small_1/expanded_conv_9_depthwise_bn_1/batchnorm/sub", "op": "Const", "attr": {"value": {"tensor": {"dtype": "DT_FLOAT", "tensorShape": {"dim": [{"size": "576"}]}}}, "dtype": {"type": "DT_FLOAT"}}}, {"name": "StatefulPartitionedCall/functional_1_1/MobileNetV3Small_1/activation_14_1/Const", "op": "Const", "attr": {"value": {"tensor": {"dtype": "DT_FLOAT", "tensorShape": {}}}, "dtype": {"type": "DT_FLOAT"}}}, {"name": "StatefulPartitionedCall/functional_1_1/MobileNetV3Small_1/expanded_conv_9_project_1/convolution/merged_input", "op": "Const", "attr": {"value": {"tensor": {"dtype": "DT_FLOAT", "tensorShape": {"dim": [{"size": "1"}, {"size": "1"}, {"size": "576"}, {"size": "96"}]}}}, "dtype": {"type": "DT_FLOAT"}}}, {"name": "StatefulPartitionedCall/functional_1_1/MobileNetV3Small_1/expanded_conv_10_expand_1/convolution/merged_input", "op": "Const", "attr": {"value": {"tensor": {"dtype": "DT_FLOAT", "tensorShape": {"dim": [{"size": "1"}, {"size": "1"}, {"size": "96"}, {"size": "576"}]}}}, "dtype": {"type": "DT_FLOAT"}}}, {"name": "StatefulPartitionedCall/functional_1_1/MobileNetV3Small_1/expanded_conv_10_expand_bn_1/batchnorm/sub", "op": "Const", "attr": {"value": {"tensor": {"dtype": "DT_FLOAT", "tensorShape": {"dim": [{"size": "576"}]}}}, "dtype": {"type": "DT_FLOAT"}}}, {"name": "StatefulPartitionedCall/functional_1_1/MobileNetV3Small_1/activation_15_1/Const", "op": "Const", "attr": {"value": {"tensor": {"dtype": "DT_FLOAT", "tensorShape": {}}}, "dtype": {"type": "DT_FLOAT"}}}, {"name": "StatefulPartitionedCall/functional_1_1/MobileNetV3Small_1/expanded_conv_10_depthwise_1/depthwise/ReadVariableOp", "op": "Const", "attr": {"value": {"tensor": {"dtype": "DT_FLOAT", "tensorShape": {"dim": [{"size": "5"}, {"size": "5"}, {"size": "576"}, {"size": "1"}]}}}, "dtype": {"type": "DT_FLOAT"}}}, {"name": "StatefulPartitionedCall/functional_1_1/MobileNetV3Small_1/expanded_conv_10_depthwise_bn_1/batchnorm/mul", "op": "Const", "attr": {"value": {"tensor": {"dtype": "DT_FLOAT", "tensorShape": {"dim": [{"size": "576"}]}}}, "dtype": {"type": "DT_FLOAT"}}}, {"name": "StatefulPartitionedCall/functional_1_1/MobileNetV3Small_1/expanded_conv_10_depthwise_bn_1/batchnorm/sub", "op": "Const", "attr": {"value": {"tensor": {"dtype": "DT_FLOAT", "tensorShape": {"dim": [{"size": "576"}]}}}, "dtype": {"type": "DT_FLOAT"}}}, {"name": "StatefulPartitionedCall/functional_1_1/MobileNetV3Small_1/activation_16_1/Const", "op": "Const", "attr": {"value": {"tensor": {"dtype": "DT_FLOAT", "tensorShape": {}}}, "dtype": {"type": "DT_FLOAT"}}}, {"name": "StatefulPartitionedCall/functional_1_1/MobileNetV3Small_1/expanded_conv_10_project_1/convolution/merged_input", "op": "Const", "attr": {"value": {"tensor": {"dtype": "DT_FLOAT", "tensorShape": {"dim": [{"size": "1"}, {"size": "1"}, {"size": "576"}, {"size": "96"}]}}}, "dtype": {"type": "DT_FLOAT"}}}, {"name": "StatefulPartitionedCall/functional_1_1/MobileNetV3Small_1/conv_1_2/convolution/merged_input", "op": "Const", "attr": {"value": {"tensor": {"dtype": "DT_FLOAT", "tensorShape": {"dim": [{"size": "1"}, {"size": "1"}, {"size": "96"}, {"size": "576"}]}}}, "dtype": {"type": "DT_FLOAT"}}}, {"name": "StatefulPartitionedCall/functional_1_1/MobileNetV3Small_1/conv_1_bn_1/batchnorm/sub", "op": "Const", "attr": {"value": {"tensor": {"dtype": "DT_FLOAT", "tensorShape": {"dim": [{"size": "576"}]}}}, "dtype": {"type": "DT_FLOAT"}}}, {"name": "StatefulPartitionedCall/functional_1_1/MobileNetV3Small_1/activation_17_1/Const", "op": "Const", "attr": {"value": {"tensor": {"dtype": "DT_FLOAT", "tensorShape": {}}}, "dtype": {"type": "DT_FLOAT"}}}, {"name": "StatefulPartitionedCall/functional_1_1/global_average_pooling2d_1/Mean/reduction_indices", "op": "Const", "attr": {"value": {"tensor": {"dtype": "DT_INT32", "tensorShape": {"dim": [{"size": "2"}]}}}, "dtype": {"type": "DT_INT32"}}}, {"name": "StatefulPartitionedCall/functional_1_1/dense_1/Cast/ReadVariableOp", "op": "Const", "attr": {"value": {"tensor": {"dtype": "DT_FLOAT", "tensorShape": {"dim": [{"size": "576"}, {"size": "128"}]}}}, "dtype": {"type": "DT_FLOAT"}}}, {"name": "StatefulPartitionedCall/functional_1_1/dense_1/BiasAdd/ReadVariableOp", "op": "Const", "attr": {"value": {"tensor": {"dtype": "DT_FLOAT", "tensorShape": {"dim": [{"size": "128"}]}}}, "dtype": {"type": "DT_FLOAT"}}}, {"name": "StatefulPartitionedCall/functional_1_1/dense_1_2/Cast/ReadVariableOp", "op": "Const", "attr": {"value": {"tensor": {"dtype": "DT_FLOAT", "tensorShape": {"dim": [{"size": "128"}, {"size": "7"}]}}}, "dtype": {"type": "DT_FLOAT"}}}, {"name": "StatefulPartitionedCall/functional_1_1/dense_1_2/BiasAdd/ReadVariableOp", "op": "Const", "attr": {"value": {"tensor": {"dtype": "DT_FLOAT", "tensorShape": {"dim": [{"size": "7"}]}}}, "dtype": {"type": "DT_FLOAT"}}}, {"name": "keras_tensor_182", "op": "Placeholder", "attr": {"shape": {"shape": {"dim": [{"size": "-1"}, {"size": "224"}, {"size": "224"}, {"size": "3"}]}}, "dtype": {"type": "DT_FLOAT"}}}, {"name": "StatefulPartitionedCall/functional_1_1/rescaling_1_1/mul", "op": "Mul", "input": ["keras_tensor_182", "StatefulPartitionedCall/functional_1_1/rescaling_1_1/Cast/x"], "attr": {"T": {"type": "DT_FLOAT"}}}, {"name": "StatefulPartitionedCall/functional_1_1/rescaling_1_1/add", "op": "AddV2", "input": ["StatefulPartitionedCall/functional_1_1/rescaling_1_1/mul", "StatefulPartitionedCall/functional_1_1/rescaling_1_1/Cast_1"], "attr": {"T": {"type": "DT_FLOAT"}}}, {"name": "StatefulPartitionedCall/functional_1_1/MobileNetV3Small_1/rescaling_1/mul", "op": "Mul", "input": ["StatefulPartitionedCall/functional_1_1/rescaling_1_1/add", "StatefulPartitionedCall/functional_1_1/MobileNetV3Small_1/rescaling_1/Cast/x"], "attr": {"T": {"type": "DT_FLOAT"}}}, {"name": "StatefulPartitionedCall/functional_1_1/MobileNetV3Small_1/rescaling_1/add", "op": "AddV2", "input": ["StatefulPartitionedCall/functional_1_1/MobileNetV3Small_1/rescaling_1/mul", "StatefulPartitionedCall/functional_1_1/MobileNetV3Small_1/rescaling_1/Cast_1/x"], "attr": {"T": {"type": "DT_FLOAT"}}}, {"name": "StatefulPartitionedCall/functional_1_1/MobileNetV3Small_1/conv_bn_1/batchnorm/add_1", "op": "_FusedConv2D", "input": ["StatefulPartitionedCall/functional_1_1/MobileNetV3Small_1/rescaling_1/add", "StatefulPartitionedCall/functional_1_1/MobileNetV3Small_1/conv_1/convolution/merged_input", "StatefulPartitionedCall/functional_1_1/MobileNetV3Small_1/conv_bn_1/batchnorm/sub"], "device": "/device:CPU:0", "attr": {"num_host_args": {"i": "0"}, "data_format": {"s": "TkhXQw=="}, "filter_format": {"s": "SFdJTw=="}, "fused_ops": {"list": {"s": ["Qmlhc0FkZA=="]}}, "num_args": {"i": "1"}, "strides": {"list": {"i": ["1", "2", "2", "1"]}}, "TArgs": {"list": {"type": ["DT_FLOAT"]}}, "padding": {"s": "U0FNRQ=="}, "use_cudnn_on_gpu": {"b": true}, "leakyrelu_alpha": {"f": 0.2}, "epsilon": {"f": 0.0}, "T": {"type": "DT_FLOAT"}, "explicit_paddings": {"list": {}}, "dilations": {"list": {"i": ["1", "1", "1", "1"]}}}}, {"name": "StatefulPartitionedCall/functional_1_1/MobileNetV3Small_1/activation_1/truediv", "op": "Mul", "input": ["ConstantFolding/StatefulPartitionedCall/functional_1_1/MobileNetV3Small_1/activation_1/truediv_recip", "StatefulPartitionedCall/functional_1_1/MobileNetV3Small_1/conv_bn_1/batchnorm/add_1"], "attr": {"_grappler_ArithmeticOptimizer_MinimizeBroadcasts": {"b": true}, "T": {"type": "DT_FLOAT"}}}, {"name": "StatefulPartitionedCall/functional_1_1/MobileNetV3Small_1/activation_1/add", "op": "AddV2", "input": ["StatefulPartitionedCall/functional_1_1/MobileNetV3Small_1/conv_bn_1/batchnorm/add_1", "StatefulPartitionedCall/functional_1_1/MobileNetV3Small_1/activation_1/Const"], "attr": {"T": {"type": "DT_FLOAT"}}}, {"name": "StatefulPartitionedCall/functional_1_1/MobileNetV3Small_1/activation_1/Relu6", "op": "Relu6", "input": ["StatefulPartitionedCall/functional_1_1/MobileNetV3Small_1/activation_1/add"], "attr": {"T": {"type": "DT_FLOAT"}}}, {"name": "StatefulPartitionedCall/functional_1_1/MobileNetV3Small_1/activation_1/mul", "op": "Mul", "input": ["StatefulPartitionedCall/functional_1_1/MobileNetV3Small_1/activation_1/truediv", "StatefulPartitionedCall/functional_1_1/MobileNetV3Small_1/activation_1/Relu6"], "attr": {"_grappler_ArithmeticOptimizer_MinimizeBroadcasts": {"b": true}, "T": {"type": "DT_FLOAT"}}}, {"name": "StatefulPartitionedCall/functional_1_1/MobileNetV3Small_1/expanded_conv_depthwise_pad_1/Pad", "op": "Pad", "input": ["StatefulPartitionedCall/functional_1_1/MobileNetV3Small_1/activation_1/mul", "StatefulPartitionedCall/functional_1_1/MobileNetV3Small_1/expanded_conv_depthwise_pad_1/Const"], "attr": {"Tpaddings": {"type": "DT_INT32"}, "T": {"type": "DT_FLOAT"}}}, {"name": "StatefulPartitionedCall/functional_1_1/MobileNetV3Small_1/expanded_conv_depthwise_1/depthwise", "op": "DepthwiseConv2dNative", "input": ["StatefulPartitionedCall/functional_1_1/MobileNetV3Small_1/expanded_conv_depthwise_pad_1/Pad", "StatefulPartitionedCall/functional_1_1/MobileNetV3Small_1/expanded_conv_depthwise_1/depthwise/ReadVariableOp"], "attr": {"padding": {"s": "VkFMSUQ="}, "data_format": {"s": "TkhXQw=="}, "T": {"type": "DT_FLOAT"}, "explicit_paddings": {"list": {}}, "dilations": {"list": {"i": ["1", "1", "1", "1"]}}, "strides": {"list": {"i": ["1", "2", "2", "1"]}}}}, {"name": "StatefulPartitionedCall/functional_1_1/MobileNetV3Small_1/expanded_conv_depthwise_bn_1/batchnorm/mul_1", "op": "Mul", "input": ["StatefulPartitionedCall/functional_1_1/MobileNetV3Small_1/expanded_conv_depthwise_1/depthwise", "StatefulPartitionedCall/functional_1_1/MobileNetV3Small_1/expanded_conv_depthwise_bn_1/batchnorm/mul"], "attr": {"T": {"type": "DT_FLOAT"}}}, {"name": "StatefulPartitionedCall/functional_1_1/MobileNetV3Small_1/expanded_conv_depthwise_bn_1/batchnorm/add_1", "op": "AddV2", "input": ["StatefulPartitionedCall/functional_1_1/MobileNetV3Small_1/expanded_conv_depthwise_bn_1/batchnorm/mul_1", "StatefulPartitionedCall/functional_1_1/MobileNetV3Small_1/expanded_conv_depthwise_bn_1/batchnorm/sub"], "attr": {"T": {"type": "DT_FLOAT"}}}, {"name": "StatefulPartitionedCall/functional_1_1/MobileNetV3Small_1/re_lu_1/Relu", "op": "Relu", "input": ["StatefulPartitionedCall/functional_1_1/MobileNetV3Small_1/expanded_conv_depthwise_bn_1/batchnorm/add_1"], "attr": {"T": {"type": "DT_FLOAT"}}}, {"name": "StatefulPartitionedCall/functional_1_1/MobileNetV3Small_1/expanded_conv_squeeze_excite_avg_pool_1/Mean", "op": "Mean", "input": ["StatefulPartitionedCall/functional_1_1/MobileNetV3Small_1/re_lu_1/Relu", "StatefulPartitionedCall/functional_1_1/MobileNetV3Small_1/expanded_conv_squeeze_excite_avg_pool_1/Mean/reduction_indices"], "attr": {"T": {"type": "DT_FLOAT"}, "Tidx": {"type": "DT_INT32"}, "keep_dims": {"b": true}}}, {"name": "StatefulPartitionedCall/functional_1_1/MobileNetV3Small_1/expanded_conv_squeeze_excite_relu_1/Relu", "op": "_FusedConv2D", "input": ["StatefulPartitionedCall/functional_1_1/MobileNetV3Small_1/expanded_conv_squeeze_excite_avg_pool_1/Mean", "StatefulPartitionedCall/functional_1_1/MobileNetV3Small_1/expanded_conv_squeeze_excite_conv_1/convolution/ReadVariableOp", "StatefulPartitionedCall/functional_1_1/MobileNetV3Small_1/expanded_conv_squeeze_excite_conv_1/Squeeze"], "device": "/device:CPU:0", "attr": {"num_host_args": {"i": "0"}, "data_format": {"s": "TkhXQw=="}, "filter_format": {"s": "SFdJTw=="}, "strides": {"list": {"i": ["1", "1", "1", "1"]}}, "num_args": {"i": "1"}, "fused_ops": {"list": {"s": ["Qmlhc0FkZA==", "UmVsdQ=="]}}, "TArgs": {"list": {"type": ["DT_FLOAT"]}}, "padding": {"s": "U0FNRQ=="}, "use_cudnn_on_gpu": {"b": true}, "leakyrelu_alpha": {"f": 0.2}, "epsilon": {"f": 0.0}, "T": {"type": "DT_FLOAT"}, "explicit_paddings": {"list": {}}, "dilations": {"list": {"i": ["1", "1", "1", "1"]}}}}, {"name": "StatefulPartitionedCall/functional_1_1/MobileNetV3Small_1/expanded_conv_squeeze_excite_conv_1_2/BiasAdd", "op": "_FusedConv2D", "input": ["StatefulPartitionedCall/functional_1_1/MobileNetV3Small_1/expanded_conv_squeeze_excite_relu_1/Relu", "StatefulPartitionedCall/functional_1_1/MobileNetV3Small_1/expanded_conv_squeeze_excite_conv_1_2/convolution/ReadVariableOp", "StatefulPartitionedCall/functional_1_1/MobileNetV3Small_1/expanded_conv_squeeze_excite_conv_1_2/Squeeze"], "device": "/device:CPU:0", "attr": {"num_host_args": {"i": "0"}, "data_format": {"s": "TkhXQw=="}, "filter_format": {"s": "SFdJTw=="}, "strides": {"list": {"i": ["1", "1", "1", "1"]}}, "num_args": {"i": "1"}, "fused_ops": {"list": {"s": ["Qmlhc0FkZA=="]}}, "TArgs": {"list": {"type": ["DT_FLOAT"]}}, "padding": {"s": "U0FNRQ=="}, "use_cudnn_on_gpu": {"b": true}, "leakyrelu_alpha": {"f": 0.2}, "epsilon": {"f": 0.0}, "T": {"type": "DT_FLOAT"}, "explicit_paddings": {"list": {}}, "dilations": {"list": {"i": ["1", "1", "1", "1"]}}}}, {"name": "StatefulPartitionedCall/functional_1_1/MobileNetV3Small_1/Add", "op": "AddV2", "input": ["StatefulPartitionedCall/functional_1_1/MobileNetV3Small_1/expanded_conv_squeeze_excite_conv_1_2/BiasAdd", "StatefulPartitionedCall/functional_1_1/MobileNetV3Small_1/Const"], "attr": {"T": {"type": "DT_FLOAT"}}}, {"name": "StatefulPartitionedCall/functional_1_1/MobileNetV3Small_1/re_lu_1_2/Relu6", "op": "Relu6", "input": ["StatefulPartitionedCall/functional_1_1/MobileNetV3Small_1/Add"], "attr": {"T": {"type": "DT_FLOAT"}}}, {"name": "StatefulPartitionedCall/functional_1_1/MobileNetV3Small_1/Mul", "op": "Mul", "input": ["StatefulPartitionedCall/functional_1_1/MobileNetV3Small_1/Const_1", "StatefulPartitionedCall/functional_1_1/MobileNetV3Small_1/re_lu_1_2/Relu6"], "attr": {"_grappler_ArithmeticOptimizer_MinimizeBroadcasts": {"b": true}, "T": {"type": "DT_FLOAT"}}}, {"name": "StatefulPartitionedCall/functional_1_1/MobileNetV3Small_1/expanded_conv_squeeze_excite_mul_1/Mul", "op": "Mul", "input": ["StatefulPartitionedCall/functional_1_1/MobileNetV3Small_1/Mul", "StatefulPartitionedCall/functional_1_1/MobileNetV3Small_1/re_lu_1/Relu"], "attr": {"_grappler_ArithmeticOptimizer_MinimizeBroadcasts": {"b": true}, "T": {"type": "DT_FLOAT"}}}, {"name": "StatefulPartitionedCall/functional_1_1/MobileNetV3Small_1/expanded_conv_project_bn_1/batchnorm/add_1", "op": "_FusedConv2D", "input": ["StatefulPartitionedCall/functional_1_1/MobileNetV3Small_1/expanded_conv_squeeze_excite_mul_1/Mul", "StatefulPartitionedCall/functional_1_1/MobileNetV3Small_1/expanded_conv_project_1/convolution/merged_input", "StatefulPartitionedCall/functional_1_1/MobileNetV3Small_1/expanded_conv_project_bn_1/batchnorm/sub"], "device": "/device:CPU:0", "attr": {"num_host_args": {"i": "0"}, "data_format": {"s": "TkhXQw=="}, "filter_format": {"s": "SFdJTw=="}, "fused_ops": {"list": {"s": ["Qmlhc0FkZA=="]}}, "num_args": {"i": "1"}, "strides": {"list": {"i": ["1", "1", "1", "1"]}}, "TArgs": {"list": {"type": ["DT_FLOAT"]}}, "padding": {"s": "U0FNRQ=="}, "use_cudnn_on_gpu": {"b": true}, "leakyrelu_alpha": {"f": 0.2}, "epsilon": {"f": 0.0}, "T": {"type": "DT_FLOAT"}, "explicit_paddings": {"list": {}}, "dilations": {"list": {"i": ["1", "1", "1", "1"]}}}}, {"name": "StatefulPartitionedCall/functional_1_1/MobileNetV3Small_1/re_lu_2_1/Relu", "op": "_FusedConv2D", "input": ["StatefulPartitionedCall/functional_1_1/MobileNetV3Small_1/expanded_conv_project_bn_1/batchnorm/add_1", "StatefulPartitionedCall/functional_1_1/MobileNetV3Small_1/expanded_conv_1_expand_1/convolution/merged_input", "StatefulPartitionedCall/functional_1_1/MobileNetV3Small_1/expanded_conv_1_expand_bn_1/batchnorm/sub"], "device": "/device:CPU:0", "attr": {"num_host_args": {"i": "0"}, "data_format": {"s": "TkhXQw=="}, "filter_format": {"s": "SFdJTw=="}, "fused_ops": {"list": {"s": ["Qmlhc0FkZA==", "UmVsdQ=="]}}, "num_args": {"i": "1"}, "strides": {"list": {"i": ["1", "1", "1", "1"]}}, "TArgs": {"list": {"type": ["DT_FLOAT"]}}, "padding": {"s": "U0FNRQ=="}, "use_cudnn_on_gpu": {"b": true}, "leakyrelu_alpha": {"f": 0.2}, "epsilon": {"f": 0.0}, "T": {"type": "DT_FLOAT"}, "explicit_paddings": {"list": {}}, "dilations": {"list": {"i": ["1", "1", "1", "1"]}}}}, {"name": "StatefulPartitionedCall/functional_1_1/MobileNetV3Small_1/expanded_conv_1_depthwise_pad_1/Pad", "op": "Pad", "input": ["StatefulPartitionedCall/functional_1_1/MobileNetV3Small_1/re_lu_2_1/Relu", "StatefulPartitionedCall/functional_1_1/MobileNetV3Small_1/expanded_conv_1_depthwise_pad_1/Const"], "attr": {"Tpaddings": {"type": "DT_INT32"}, "T": {"type": "DT_FLOAT"}}}, {"name": "StatefulPartitionedCall/functional_1_1/MobileNetV3Small_1/expanded_conv_1_depthwise_1/depthwise", "op": "DepthwiseConv2dNative", "input": ["StatefulPartitionedCall/functional_1_1/MobileNetV3Small_1/expanded_conv_1_depthwise_pad_1/Pad", "StatefulPartitionedCall/functional_1_1/MobileNetV3Small_1/expanded_conv_1_depthwise_1/depthwise/ReadVariableOp"], "attr": {"padding": {"s": "VkFMSUQ="}, "data_format": {"s": "TkhXQw=="}, "T": {"type": "DT_FLOAT"}, "explicit_paddings": {"list": {}}, "dilations": {"list": {"i": ["1", "1", "1", "1"]}}, "strides": {"list": {"i": ["1", "2", "2", "1"]}}}}, {"name": "StatefulPartitionedCall/functional_1_1/MobileNetV3Small_1/expanded_conv_1_depthwise_bn_1/batchnorm/mul_1", "op": "Mul", "input": ["StatefulPartitionedCall/functional_1_1/MobileNetV3Small_1/expanded_conv_1_depthwise_1/depthwise", "StatefulPartitionedCall/functional_1_1/MobileNetV3Small_1/expanded_conv_1_depthwise_bn_1/batchnorm/mul"], "attr": {"T": {"type": "DT_FLOAT"}}}, {"name": "StatefulPartitionedCall/functional_1_1/MobileNetV3Small_1/expanded_conv_1_depthwise_bn_1/batchnorm/add_1", "op": "AddV2", "input": ["StatefulPartitionedCall/functional_1_1/MobileNetV3Small_1/expanded_conv_1_depthwise_bn_1/batchnorm/mul_1", "StatefulPartitionedCall/functional_1_1/MobileNetV3Small_1/expanded_conv_1_depthwise_bn_1/batchnorm/sub"], "attr": {"T": {"type": "DT_FLOAT"}}}, {"name": "StatefulPartitionedCall/functional_1_1/MobileNetV3Small_1/re_lu_3_1/Relu", "op": "Relu", "input": ["StatefulPartitionedCall/functional_1_1/MobileNetV3Small_1/expanded_conv_1_depthwise_bn_1/batchnorm/add_1"], "attr": {"T": {"type": "DT_FLOAT"}}}, {"name": "StatefulPartitionedCall/functional_1_1/MobileNetV3Small_1/expanded_conv_1_project_bn_1/batchnorm/add_1", "op": "_FusedConv2D", "input": ["StatefulPartitionedCall/functional_1_1/MobileNetV3Small_1/re_lu_3_1/Relu", "StatefulPartitionedCall/functional_1_1/MobileNetV3Small_1/expanded_conv_1_project_1/convolution/merged_input", "StatefulPartitionedCall/functional_1_1/MobileNetV3Small_1/expanded_conv_1_project_bn_1/batchnorm/sub"], "device": "/device:CPU:0", "attr": {"num_host_args": {"i": "0"}, "data_format": {"s": "TkhXQw=="}, "filter_format": {"s": "SFdJTw=="}, "strides": {"list": {"i": ["1", "1", "1", "1"]}}, "num_args": {"i": "1"}, "fused_ops": {"list": {"s": ["Qmlhc0FkZA=="]}}, "TArgs": {"list": {"type": ["DT_FLOAT"]}}, "padding": {"s": "U0FNRQ=="}, "use_cudnn_on_gpu": {"b": true}, "leakyrelu_alpha": {"f": 0.2}, "epsilon": {"f": 0.0}, "T": {"type": "DT_FLOAT"}, "explicit_paddings": {"list": {}}, "dilations": {"list": {"i": ["1", "1", "1", "1"]}}}}, {"name": "StatefulPartitionedCall/functional_1_1/MobileNetV3Small_1/re_lu_4_1/Relu", "op": "_FusedConv2D", "input": ["StatefulPartitionedCall/functional_1_1/MobileNetV3Small_1/expanded_conv_1_project_bn_1/batchnorm/add_1", "StatefulPartitionedCall/functional_1_1/MobileNetV3Small_1/expanded_conv_2_expand_1/convolution/merged_input", "StatefulPartitionedCall/functional_1_1/MobileNetV3Small_1/expanded_conv_2_expand_bn_1/batchnorm/sub"], "device": "/device:CPU:0", "attr": {"num_host_args": {"i": "0"}, "data_format": {"s": "TkhXQw=="}, "filter_format": {"s": "SFdJTw=="}, "fused_ops": {"list": {"s": ["Qmlhc0FkZA==", "UmVsdQ=="]}}, "num_args": {"i": "1"}, "strides": {"list": {"i": ["1", "1", "1", "1"]}}, "TArgs": {"list": {"type": ["DT_FLOAT"]}}, "padding": {"s": "U0FNRQ=="}, "use_cudnn_on_gpu": {"b": true}, "leakyrelu_alpha": {"f": 0.2}, "epsilon": {"f": 0.0}, "T": {"type": "DT_FLOAT"}, "explicit_paddings": {"list": {}}, "dilations": {"list": {"i": ["1", "1", "1", "1"]}}}}, {"name": "StatefulPartitionedCall/functional_1_1/MobileNetV3Small_1/expanded_conv_2_depthwise_1/depthwise", "op": "DepthwiseConv2dNative", "input": ["StatefulPartitionedCall/functional_1_1/MobileNetV3Small_1/re_lu_4_1/Relu", "StatefulPartitionedCall/functional_1_1/MobileNetV3Small_1/expanded_conv_2_depthwise_1/depthwise/ReadVariableOp"], "attr": {"padding": {"s": "U0FNRQ=="}, "data_format": {"s": "TkhXQw=="}, "T": {"type": "DT_FLOAT"}, "explicit_paddings": {"list": {}}, "dilations": {"list": {"i": ["1", "1", "1", "1"]}}, "strides": {"list": {"i": ["1", "1", "1", "1"]}}}}, {"name": "StatefulPartitionedCall/functional_1_1/MobileNetV3Small_1/expanded_conv_2_depthwise_bn_1/batchnorm/mul_1", "op": "Mul", "input": ["StatefulPartitionedCall/functional_1_1/MobileNetV3Small_1/expanded_conv_2_depthwise_1/depthwise", "StatefulPartitionedCall/functional_1_1/MobileNetV3Small_1/expanded_conv_2_depthwise_bn_1/batchnorm/mul"], "attr": {"T": {"type": "DT_FLOAT"}}}, {"name": "StatefulPartitionedCall/functional_1_1/MobileNetV3Small_1/expanded_conv_2_depthwise_bn_1/batchnorm/add_1", "op": "AddV2", "input": ["StatefulPartitionedCall/functional_1_1/MobileNetV3Small_1/expanded_conv_2_depthwise_bn_1/batchnorm/mul_1", "StatefulPartitionedCall/functional_1_1/MobileNetV3Small_1/expanded_conv_2_depthwise_bn_1/batchnorm/sub"], "attr": {"T": {"type": "DT_FLOAT"}}}, {"name": "StatefulPartitionedCall/functional_1_1/MobileNetV3Small_1/re_lu_5_1/Relu", "op": "Relu", "input": ["StatefulPartitionedCall/functional_1_1/MobileNetV3Small_1/expanded_conv_2_depthwise_bn_1/batchnorm/add_1"], "attr": {"T": {"type": "DT_FLOAT"}}}, {"name": "StatefulPartitionedCall/functional_1_1/MobileNetV3Small_1/expanded_conv_2_project_bn_1/batchnorm/mul_1", "op": "Conv2D", "input": ["StatefulPartitionedCall/functional_1_1/MobileNetV3Small_1/re_lu_5_1/Relu", "StatefulPartitionedCall/functional_1_1/MobileNetV3Small_1/expanded_conv_2_project_1/convolution/merged_input"], "device": "/device:CPU:0", "attr": {"padding": {"s": "U0FNRQ=="}, "data_format": {"s": "TkhXQw=="}, "strides": {"list": {"i": ["1", "1", "1", "1"]}}, "use_cudnn_on_gpu": {"b": true}, "T": {"type": "DT_FLOAT"}, "explicit_paddings": {"list": {}}, "dilations": {"list": {"i": ["1", "1", "1", "1"]}}}}, {"name": "StatefulPartitionedCall/functional_1_1/MobileNetV3Small_1/expanded_conv_2_add_1/ArithmeticOptimizer/AddOpsRewrite_Leaf_1_Add", "op": "AddN", "input": ["StatefulPartitionedCall/functional_1_1/MobileNetV3Small_1/expanded_conv_1_project_bn_1/batchnorm/add_1", "StatefulPartitionedCall/functional_1_1/MobileNetV3Small_1/expanded_conv_2_project_bn_1/batchnorm/mul_1"], "attr": {"N": {"i": "2"}, "T": {"type": "DT_FLOAT"}, "_grappler_ArithmeticOptimizer_AddOpsRewriteStage": {"b": true}}}, {"name": "StatefulPartitionedCall/functional_1_1/MobileNetV3Small_1/expanded_conv_2_add_1/ArithmeticOptimizer/AddOpsRewrite_Add", "op": "AddV2", "input": ["StatefulPartitionedCall/functional_1_1/MobileNetV3Small_1/expanded_conv_2_project_bn_1/batchnorm/sub", "StatefulPartitionedCall/functional_1_1/MobileNetV3Small_1/expanded_conv_2_add_1/ArithmeticOptimizer/AddOpsRewrite_Leaf_1_Add"], "attr": {"T": {"type": "DT_FLOAT"}, "_grappler_ArithmeticOptimizer_AddOpsRewriteStage": {"b": true}}}, {"name": "StatefulPartitionedCall/functional_1_1/MobileNetV3Small_1/expanded_conv_3_expand_bn_1/batchnorm/add_1", "op": "_FusedConv2D", "input": ["StatefulPartitionedCall/functional_1_1/MobileNetV3Small_1/expanded_conv_2_add_1/ArithmeticOptimizer/AddOpsRewrite_Add", "StatefulPartitionedCall/functional_1_1/MobileNetV3Small_1/expanded_conv_3_expand_1/convolution/merged_input", "StatefulPartitionedCall/functional_1_1/MobileNetV3Small_1/expanded_conv_3_expand_bn_1/batchnorm/sub"], "device": "/device:CPU:0", "attr": {"num_host_args": {"i": "0"}, "data_format": {"s": "TkhXQw=="}, "filter_format": {"s": "SFdJTw=="}, "fused_ops": {"list": {"s": ["Qmlhc0FkZA=="]}}, "num_args": {"i": "1"}, "strides": {"list": {"i": ["1", "1", "1", "1"]}}, "TArgs": {"list": {"type": ["DT_FLOAT"]}}, "padding": {"s": "U0FNRQ=="}, "use_cudnn_on_gpu": {"b": true}, "leakyrelu_alpha": {"f": 0.2}, "epsilon": {"f": 0.0}, "T": {"type": "DT_FLOAT"}, "explicit_paddings": {"list": {}}, "dilations": {"list": {"i": ["1", "1", "1", "1"]}}}}, {"name": "StatefulPartitionedCall/functional_1_1/MobileNetV3Small_1/activation_1_2/truediv", "op": "Mul", "input": ["ConstantFolding/StatefulPartitionedCall/functional_1_1/MobileNetV3Small_1/activation_1_2/truediv_recip", "StatefulPartitionedCall/functional_1_1/MobileNetV3Small_1/expanded_conv_3_expand_bn_1/batchnorm/add_1"], "attr": {"_grappler_ArithmeticOptimizer_MinimizeBroadcasts": {"b": true}, "T": {"type": "DT_FLOAT"}}}, {"name": "StatefulPartitionedCall/functional_1_1/MobileNetV3Small_1/activation_1_2/add", "op": "AddV2", "input": ["StatefulPartitionedCall/functional_1_1/MobileNetV3Small_1/expanded_conv_3_expand_bn_1/batchnorm/add_1", "StatefulPartitionedCall/functional_1_1/MobileNetV3Small_1/activation_1_2/Const"], "attr": {"T": {"type": "DT_FLOAT"}}}, {"name": "StatefulPartitionedCall/functional_1_1/MobileNetV3Small_1/activation_1_2/Relu6", "op": "Relu6", "input": ["StatefulPartitionedCall/functional_1_1/MobileNetV3Small_1/activation_1_2/add"], "attr": {"T": {"type": "DT_FLOAT"}}}, {"name": "StatefulPartitionedCall/functional_1_1/MobileNetV3Small_1/activation_1_2/mul", "op": "Mul", "input": ["StatefulPartitionedCall/functional_1_1/MobileNetV3Small_1/activation_1_2/truediv", "StatefulPartitionedCall/functional_1_1/MobileNetV3Small_1/activation_1_2/Relu6"], "attr": {"_grappler_ArithmeticOptimizer_MinimizeBroadcasts": {"b": true}, "T": {"type": "DT_FLOAT"}}}, {"name": "StatefulPartitionedCall/functional_1_1/MobileNetV3Small_1/expanded_conv_3_depthwise_pad_1/Pad", "op": "Pad", "input": ["StatefulPartitionedCall/functional_1_1/MobileNetV3Small_1/activation_1_2/mul", "StatefulPartitionedCall/functional_1_1/MobileNetV3Small_1/expanded_conv_3_depthwise_pad_1/Const"], "attr": {"Tpaddings": {"type": "DT_INT32"}, "T": {"type": "DT_FLOAT"}}}, {"name": "StatefulPartitionedCall/functional_1_1/MobileNetV3Small_1/expanded_conv_3_depthwise_1/depthwise", "op": "DepthwiseConv2dNative", "input": ["StatefulPartitionedCall/functional_1_1/MobileNetV3Small_1/expanded_conv_3_depthwise_pad_1/Pad", "StatefulPartitionedCall/functional_1_1/MobileNetV3Small_1/expanded_conv_3_depthwise_1/depthwise/ReadVariableOp"], "attr": {"padding": {"s": "VkFMSUQ="}, "data_format": {"s": "TkhXQw=="}, "T": {"type": "DT_FLOAT"}, "explicit_paddings": {"list": {}}, "dilations": {"list": {"i": ["1", "1", "1", "1"]}}, "strides": {"list": {"i": ["1", "2", "2", "1"]}}}}, {"name": "StatefulPartitionedCall/functional_1_1/MobileNetV3Small_1/expanded_conv_3_depthwise_bn_1/batchnorm/mul_1", "op": "Mul", "input": ["StatefulPartitionedCall/functional_1_1/MobileNetV3Small_1/expanded_conv_3_depthwise_1/depthwise", "StatefulPartitionedCall/functional_1_1/MobileNetV3Small_1/expanded_conv_3_depthwise_bn_1/batchnorm/mul"], "attr": {"T": {"type": "DT_FLOAT"}}}, {"name": "StatefulPartitionedCall/functional_1_1/MobileNetV3Small_1/expanded_conv_3_depthwise_bn_1/batchnorm/add_1", "op": "AddV2", "input": ["StatefulPartitionedCall/functional_1_1/MobileNetV3Small_1/expanded_conv_3_depthwise_bn_1/batchnorm/mul_1", "StatefulPartitionedCall/functional_1_1/MobileNetV3Small_1/expanded_conv_3_depthwise_bn_1/batchnorm/sub"], "attr": {"T": {"type": "DT_FLOAT"}}}, {"name": "StatefulPartitionedCall/functional_1_1/MobileNetV3Small_1/activation_2_1/truediv", "op": "Mul", "input": ["ConstantFolding/StatefulPartitionedCall/functional_1_1/MobileNetV3Small_1/activation_2_1/truediv_recip", "StatefulPartitionedCall/functional_1_1/MobileNetV3Small_1/expanded_conv_3_depthwise_bn_1/batchnorm/add_1"], "attr": {"_grappler_ArithmeticOptimizer_MinimizeBroadcasts": {"b": true}, "T": {"type": "DT_FLOAT"}}}, {"name": "StatefulPartitionedCall/functional_1_1/MobileNetV3Small_1/activation_2_1/add", "op": "AddV2", "input": ["StatefulPartitionedCall/functional_1_1/MobileNetV3Small_1/expanded_conv_3_depthwise_bn_1/batchnorm/add_1", "StatefulPartitionedCall/functional_1_1/MobileNetV3Small_1/activation_2_1/Const"], "attr": {"T": {"type": "DT_FLOAT"}}}, {"name": "StatefulPartitionedCall/functional_1_1/MobileNetV3Small_1/activation_2_1/Relu6", "op": "Relu6", "input": ["StatefulPartitionedCall/functional_1_1/MobileNetV3Small_1/activation_2_1/add"], "attr": {"T": {"type": "DT_FLOAT"}}}, {"name": "StatefulPartitionedCall/functional_1_1/MobileNetV3Small_1/activation_2_1/mul", "op": "Mul", "input": ["StatefulPartitionedCall/functional_1_1/MobileNetV3Small_1/activation_2_1/truediv", "StatefulPartitionedCall/functional_1_1/MobileNetV3Small_1/activation_2_1/Relu6"], "attr": {"_grappler_ArithmeticOptimizer_MinimizeBroadcasts": {"b": true}, "T": {"type": "DT_FLOAT"}}}, {"name": "StatefulPartitionedCall/functional_1_1/MobileNetV3Small_1/expanded_conv_3_squeeze_excite_avg_pool_1/Mean", "op": "Mean", "input": ["StatefulPartitionedCall/functional_1_1/MobileNetV3Small_1/activation_2_1/mul", "StatefulPartitionedCall/functional_1_1/MobileNetV3Small_1/expanded_conv_3_squeeze_excite_avg_pool_1/Mean/reduction_indices"], "attr": {"T": {"type": "DT_FLOAT"}, "Tidx": {"type": "DT_INT32"}, "keep_dims": {"b": true}}}, {"name": "StatefulPartitionedCall/functional_1_1/MobileNetV3Small_1/expanded_conv_3_squeeze_excite_relu_1/Relu", "op": "_FusedConv2D", "input": ["StatefulPartitionedCall/functional_1_1/MobileNetV3Small_1/expanded_conv_3_squeeze_excite_avg_pool_1/Mean", "StatefulPartitionedCall/functional_1_1/MobileNetV3Small_1/expanded_conv_3_squeeze_excite_conv_1/convolution/ReadVariableOp", "StatefulPartitionedCall/functional_1_1/MobileNetV3Small_1/expanded_conv_3_squeeze_excite_conv_1/Squeeze"], "device": "/device:CPU:0", "attr": {"num_host_args": {"i": "0"}, "data_format": {"s": "TkhXQw=="}, "filter_format": {"s": "SFdJTw=="}, "fused_ops": {"list": {"s": ["Qmlhc0FkZA==", "UmVsdQ=="]}}, "num_args": {"i": "1"}, "strides": {"list": {"i": ["1", "1", "1", "1"]}}, "TArgs": {"list": {"type": ["DT_FLOAT"]}}, "padding": {"s": "U0FNRQ=="}, "use_cudnn_on_gpu": {"b": true}, "leakyrelu_alpha": {"f": 0.2}, "epsilon": {"f": 0.0}, "T": {"type": "DT_FLOAT"}, "explicit_paddings": {"list": {}}, "dilations": {"list": {"i": ["1", "1", "1", "1"]}}}}, {"name": "StatefulPartitionedCall/functional_1_1/MobileNetV3Small_1/expanded_conv_3_squeeze_excite_conv_1_2/BiasAdd", "op": "_FusedConv2D", "input": ["StatefulPartitionedCall/functional_1_1/MobileNetV3Small_1/expanded_conv_3_squeeze_excite_relu_1/Relu", "StatefulPartitionedCall/functional_1_1/MobileNetV3Small_1/expanded_conv_3_squeeze_excite_conv_1_2/convolution/ReadVariableOp", "StatefulPartitionedCall/functional_1_1/MobileNetV3Small_1/expanded_conv_3_squeeze_excite_conv_1_2/Squeeze"], "device": "/device:CPU:0", "attr": {"num_host_args": {"i": "0"}, "data_format": {"s": "TkhXQw=="}, "filter_format": {"s": "SFdJTw=="}, "strides": {"list": {"i": ["1", "1", "1", "1"]}}, "num_args": {"i": "1"}, "fused_ops": {"list": {"s": ["Qmlhc0FkZA=="]}}, "TArgs": {"list": {"type": ["DT_FLOAT"]}}, "padding": {"s": "U0FNRQ=="}, "use_cudnn_on_gpu": {"b": true}, "leakyrelu_alpha": {"f": 0.2}, "epsilon": {"f": 0.0}, "T": {"type": "DT_FLOAT"}, "explicit_paddings": {"list": {}}, "dilations": {"list": {"i": ["1", "1", "1", "1"]}}}}, {"name": "StatefulPartitionedCall/functional_1_1/MobileNetV3Small_1/Add_1", "op": "AddV2", "input": ["StatefulPartitionedCall/functional_1_1/MobileNetV3Small_1/expanded_conv_3_squeeze_excite_conv_1_2/BiasAdd", "StatefulPartitionedCall/functional_1_1/MobileNetV3Small_1/Const_2"], "attr": {"T": {"type": "DT_FLOAT"}}}, {"name": "StatefulPartitionedCall/functional_1_1/MobileNetV3Small_1/re_lu_6_1/Relu6", "op": "Relu6", "input": ["StatefulPartitionedCall/functional_1_1/MobileNetV3Small_1/Add_1"], "attr": {"T": {"type": "DT_FLOAT"}}}, {"name": "StatefulPartitionedCall/functional_1_1/MobileNetV3Small_1/Mul_1", "op": "Mul", "input": ["StatefulPartitionedCall/functional_1_1/MobileNetV3Small_1/Const_3", "StatefulPartitionedCall/functional_1_1/MobileNetV3Small_1/re_lu_6_1/Relu6"], "attr": {"_grappler_ArithmeticOptimizer_MinimizeBroadcasts": {"b": true}, "T": {"type": "DT_FLOAT"}}}, {"name": "StatefulPartitionedCall/functional_1_1/MobileNetV3Small_1/expanded_conv_3_squeeze_excite_mul_1/Mul", "op": "Mul", "input": ["StatefulPartitionedCall/functional_1_1/MobileNetV3Small_1/Mul_1", "StatefulPartitionedCall/functional_1_1/MobileNetV3Small_1/activation_2_1/mul"], "attr": {"_grappler_ArithmeticOptimizer_MinimizeBroadcasts": {"b": true}, "T": {"type": "DT_FLOAT"}}}, {"name": "StatefulPartitionedCall/functional_1_1/MobileNetV3Small_1/expanded_conv_3_project_bn_1/batchnorm/add_1", "op": "_FusedConv2D", "input": ["StatefulPartitionedCall/functional_1_1/MobileNetV3Small_1/expanded_conv_3_squeeze_excite_mul_1/Mul", "StatefulPartitionedCall/functional_1_1/MobileNetV3Small_1/expanded_conv_3_project_1/convolution/merged_input", "StatefulPartitionedCall/functional_1_1/MobileNetV3Small_1/expanded_conv_3_project_bn_1/batchnorm/sub"], "device": "/device:CPU:0", "attr": {"num_host_args": {"i": "0"}, "data_format": {"s": "TkhXQw=="}, "filter_format": {"s": "SFdJTw=="}, "strides": {"list": {"i": ["1", "1", "1", "1"]}}, "num_args": {"i": "1"}, "fused_ops": {"list": {"s": ["Qmlhc0FkZA=="]}}, "TArgs": {"list": {"type": ["DT_FLOAT"]}}, "padding": {"s": "U0FNRQ=="}, "use_cudnn_on_gpu": {"b": true}, "leakyrelu_alpha": {"f": 0.2}, "epsilon": {"f": 0.0}, "T": {"type": "DT_FLOAT"}, "explicit_paddings": {"list": {}}, "dilations": {"list": {"i": ["1", "1", "1", "1"]}}}}, {"name": "StatefulPartitionedCall/functional_1_1/MobileNetV3Small_1/expanded_conv_4_expand_bn_1/batchnorm/add_1", "op": "_FusedConv2D", "input": ["StatefulPartitionedCall/functional_1_1/MobileNetV3Small_1/expanded_conv_3_project_bn_1/batchnorm/add_1", "StatefulPartitionedCall/functional_1_1/MobileNetV3Small_1/expanded_conv_4_expand_1/convolution/merged_input", "StatefulPartitionedCall/functional_1_1/MobileNetV3Small_1/expanded_conv_4_expand_bn_1/batchnorm/sub"], "device": "/device:CPU:0", "attr": {"num_host_args": {"i": "0"}, "data_format": {"s": "TkhXQw=="}, "filter_format": {"s": "SFdJTw=="}, "strides": {"list": {"i": ["1", "1", "1", "1"]}}, "num_args": {"i": "1"}, "fused_ops": {"list": {"s": ["Qmlhc0FkZA=="]}}, "TArgs": {"list": {"type": ["DT_FLOAT"]}}, "padding": {"s": "U0FNRQ=="}, "use_cudnn_on_gpu": {"b": true}, "leakyrelu_alpha": {"f": 0.2}, "epsilon": {"f": 0.0}, "T": {"type": "DT_FLOAT"}, "explicit_paddings": {"list": {}}, "dilations": {"list": {"i": ["1", "1", "1", "1"]}}}}, {"name": "StatefulPartitionedCall/functional_1_1/MobileNetV3Small_1/activation_3_1/truediv", "op": "Mul", "input": ["ConstantFolding/StatefulPartitionedCall/functional_1_1/MobileNetV3Small_1/activation_3_1/truediv_recip", "StatefulPartitionedCall/functional_1_1/MobileNetV3Small_1/expanded_conv_4_expand_bn_1/batchnorm/add_1"], "attr": {"_grappler_ArithmeticOptimizer_MinimizeBroadcasts": {"b": true}, "T": {"type": "DT_FLOAT"}}}, {"name": "StatefulPartitionedCall/functional_1_1/MobileNetV3Small_1/activation_3_1/add", "op": "AddV2", "input": ["StatefulPartitionedCall/functional_1_1/MobileNetV3Small_1/expanded_conv_4_expand_bn_1/batchnorm/add_1", "StatefulPartitionedCall/functional_1_1/MobileNetV3Small_1/activation_3_1/Const"], "attr": {"T": {"type": "DT_FLOAT"}}}, {"name": "StatefulPartitionedCall/functional_1_1/MobileNetV3Small_1/activation_3_1/Relu6", "op": "Relu6", "input": ["StatefulPartitionedCall/functional_1_1/MobileNetV3Small_1/activation_3_1/add"], "attr": {"T": {"type": "DT_FLOAT"}}}, {"name": "StatefulPartitionedCall/functional_1_1/MobileNetV3Small_1/activation_3_1/mul", "op": "Mul", "input": ["StatefulPartitionedCall/functional_1_1/MobileNetV3Small_1/activation_3_1/truediv", "StatefulPartitionedCall/functional_1_1/MobileNetV3Small_1/activation_3_1/Relu6"], "attr": {"_grappler_ArithmeticOptimizer_MinimizeBroadcasts": {"b": true}, "T": {"type": "DT_FLOAT"}}}, {"name": "StatefulPartitionedCall/functional_1_1/MobileNetV3Small_1/expanded_conv_4_depthwise_1/depthwise", "op": "DepthwiseConv2dNative", "input": ["StatefulPartitionedCall/functional_1_1/MobileNetV3Small_1/activation_3_1/mul", "StatefulPartitionedCall/functional_1_1/MobileNetV3Small_1/expanded_conv_4_depthwise_1/depthwise/ReadVariableOp"], "attr": {"padding": {"s": "U0FNRQ=="}, "data_format": {"s": "TkhXQw=="}, "T": {"type": "DT_FLOAT"}, "explicit_paddings": {"list": {}}, "dilations": {"list": {"i": ["1", "1", "1", "1"]}}, "strides": {"list": {"i": ["1", "1", "1", "1"]}}}}, {"name": "StatefulPartitionedCall/functional_1_1/MobileNetV3Small_1/expanded_conv_4_depthwise_bn_1/batchnorm/mul_1", "op": "Mul", "input": ["StatefulPartitionedCall/functional_1_1/MobileNetV3Small_1/expanded_conv_4_depthwise_1/depthwise", "StatefulPartitionedCall/functional_1_1/MobileNetV3Small_1/expanded_conv_4_depthwise_bn_1/batchnorm/mul"], "attr": {"T": {"type": "DT_FLOAT"}}}, {"name": "StatefulPartitionedCall/functional_1_1/MobileNetV3Small_1/expanded_conv_4_depthwise_bn_1/batchnorm/add_1", "op": "AddV2", "input": ["StatefulPartitionedCall/functional_1_1/MobileNetV3Small_1/expanded_conv_4_depthwise_bn_1/batchnorm/mul_1", "StatefulPartitionedCall/functional_1_1/MobileNetV3Small_1/expanded_conv_4_depthwise_bn_1/batchnorm/sub"], "attr": {"T": {"type": "DT_FLOAT"}}}, {"name": "StatefulPartitionedCall/functional_1_1/MobileNetV3Small_1/activation_4_1/truediv", "op": "Mul", "input": ["ConstantFolding/StatefulPartitionedCall/functional_1_1/MobileNetV3Small_1/activation_4_1/truediv_recip", "StatefulPartitionedCall/functional_1_1/MobileNetV3Small_1/expanded_conv_4_depthwise_bn_1/batchnorm/add_1"], "attr": {"_grappler_ArithmeticOptimizer_MinimizeBroadcasts": {"b": true}, "T": {"type": "DT_FLOAT"}}}, {"name": "StatefulPartitionedCall/functional_1_1/MobileNetV3Small_1/activation_4_1/add", "op": "AddV2", "input": ["StatefulPartitionedCall/functional_1_1/MobileNetV3Small_1/expanded_conv_4_depthwise_bn_1/batchnorm/add_1", "StatefulPartitionedCall/functional_1_1/MobileNetV3Small_1/activation_4_1/Const"], "attr": {"T": {"type": "DT_FLOAT"}}}, {"name": "StatefulPartitionedCall/functional_1_1/MobileNetV3Small_1/activation_4_1/Relu6", "op": "Relu6", "input": ["StatefulPartitionedCall/functional_1_1/MobileNetV3Small_1/activation_4_1/add"], "attr": {"T": {"type": "DT_FLOAT"}}}, {"name": "StatefulPartitionedCall/functional_1_1/MobileNetV3Small_1/activation_4_1/mul", "op": "Mul", "input": ["StatefulPartitionedCall/functional_1_1/MobileNetV3Small_1/activation_4_1/truediv", "StatefulPartitionedCall/functional_1_1/MobileNetV3Small_1/activation_4_1/Relu6"], "attr": {"_grappler_ArithmeticOptimizer_MinimizeBroadcasts": {"b": true}, "T": {"type": "DT_FLOAT"}}}, {"name": "StatefulPartitionedCall/functional_1_1/MobileNetV3Small_1/expanded_conv_4_squeeze_excite_avg_pool_1/Mean", "op": "Mean", "input": ["StatefulPartitionedCall/functional_1_1/MobileNetV3Small_1/activation_4_1/mul", "StatefulPartitionedCall/functional_1_1/MobileNetV3Small_1/expanded_conv_4_squeeze_excite_avg_pool_1/Mean/reduction_indices"], "attr": {"T": {"type": "DT_FLOAT"}, "Tidx": {"type": "DT_INT32"}, "keep_dims": {"b": true}}}, {"name": "StatefulPartitionedCall/functional_1_1/MobileNetV3Small_1/expanded_conv_4_squeeze_excite_relu_1/Relu", "op": "_FusedConv2D", "input": ["StatefulPartitionedCall/functional_1_1/MobileNetV3Small_1/expanded_conv_4_squeeze_excite_avg_pool_1/Mean", "StatefulPartitionedCall/functional_1_1/MobileNetV3Small_1/expanded_conv_4_squeeze_excite_conv_1/convolution/ReadVariableOp", "StatefulPartitionedCall/functional_1_1/MobileNetV3Small_1/expanded_conv_4_squeeze_excite_conv_1/Squeeze"], "device": "/device:CPU:0", "attr": {"num_host_args": {"i": "0"}, "data_format": {"s": "TkhXQw=="}, "filter_format": {"s": "SFdJTw=="}, "fused_ops": {"list": {"s": ["Qmlhc0FkZA==", "UmVsdQ=="]}}, "num_args": {"i": "1"}, "strides": {"list": {"i": ["1", "1", "1", "1"]}}, "TArgs": {"list": {"type": ["DT_FLOAT"]}}, "padding": {"s": "U0FNRQ=="}, "use_cudnn_on_gpu": {"b": true}, "leakyrelu_alpha": {"f": 0.2}, "epsilon": {"f": 0.0}, "T": {"type": "DT_FLOAT"}, "explicit_paddings": {"list": {}}, "dilations": {"list": {"i": ["1", "1", "1", "1"]}}}}, {"name": "StatefulPartitionedCall/functional_1_1/MobileNetV3Small_1/expanded_conv_4_squeeze_excite_conv_1_2/BiasAdd", "op": "_FusedConv2D", "input": ["StatefulPartitionedCall/functional_1_1/MobileNetV3Small_1/expanded_conv_4_squeeze_excite_relu_1/Relu", "StatefulPartitionedCall/functional_1_1/MobileNetV3Small_1/expanded_conv_4_squeeze_excite_conv_1_2/convolution/ReadVariableOp", "StatefulPartitionedCall/functional_1_1/MobileNetV3Small_1/expanded_conv_4_squeeze_excite_conv_1_2/Squeeze"], "device": "/device:CPU:0", "attr": {"num_host_args": {"i": "0"}, "data_format": {"s": "TkhXQw=="}, "filter_format": {"s": "SFdJTw=="}, "fused_ops": {"list": {"s": ["Qmlhc0FkZA=="]}}, "num_args": {"i": "1"}, "strides": {"list": {"i": ["1", "1", "1", "1"]}}, "TArgs": {"list": {"type": ["DT_FLOAT"]}}, "padding": {"s": "U0FNRQ=="}, "use_cudnn_on_gpu": {"b": true}, "leakyrelu_alpha": {"f": 0.2}, "epsilon": {"f": 0.0}, "T": {"type": "DT_FLOAT"}, "explicit_paddings": {"list": {}}, "dilations": {"list": {"i": ["1", "1", "1", "1"]}}}}, {"name": "StatefulPartitionedCall/functional_1_1/MobileNetV3Small_1/Add_2", "op": "AddV2", "input": ["StatefulPartitionedCall/functional_1_1/MobileNetV3Small_1/expanded_conv_4_squeeze_excite_conv_1_2/BiasAdd", "StatefulPartitionedCall/functional_1_1/MobileNetV3Small_1/Const_4"], "attr": {"T": {"type": "DT_FLOAT"}}}, {"name": "StatefulPartitionedCall/functional_1_1/MobileNetV3Small_1/re_lu_7_1/Relu6", "op": "Relu6", "input": ["StatefulPartitionedCall/functional_1_1/MobileNetV3Small_1/Add_2"], "attr": {"T": {"type": "DT_FLOAT"}}}, {"name": "StatefulPartitionedCall/functional_1_1/MobileNetV3Small_1/Mul_2", "op": "Mul", "input": ["StatefulPartitionedCall/functional_1_1/MobileNetV3Small_1/Const_5", "StatefulPartitionedCall/functional_1_1/MobileNetV3Small_1/re_lu_7_1/Relu6"], "attr": {"_grappler_ArithmeticOptimizer_MinimizeBroadcasts": {"b": true}, "T": {"type": "DT_FLOAT"}}}, {"name": "StatefulPartitionedCall/functional_1_1/MobileNetV3Small_1/expanded_conv_4_squeeze_excite_mul_1/Mul", "op": "Mul", "input": ["StatefulPartitionedCall/functional_1_1/MobileNetV3Small_1/Mul_2", "StatefulPartitionedCall/functional_1_1/MobileNetV3Small_1/activation_4_1/mul"], "attr": {"_grappler_ArithmeticOptimizer_MinimizeBroadcasts": {"b": true}, "T": {"type": "DT_FLOAT"}}}, {"name": "StatefulPartitionedCall/functional_1_1/MobileNetV3Small_1/expanded_conv_4_project_bn_1/batchnorm/mul_1", "op": "Conv2D", "input": ["StatefulPartitionedCall/functional_1_1/MobileNetV3Small_1/expanded_conv_4_squeeze_excite_mul_1/Mul", "StatefulPartitionedCall/functional_1_1/MobileNetV3Small_1/expanded_conv_4_project_1/convolution/merged_input"], "device": "/device:CPU:0", "attr": {"padding": {"s": "U0FNRQ=="}, "data_format": {"s": "TkhXQw=="}, "use_cudnn_on_gpu": {"b": true}, "strides": {"list": {"i": ["1", "1", "1", "1"]}}, "T": {"type": "DT_FLOAT"}, "explicit_paddings": {"list": {}}, "dilations": {"list": {"i": ["1", "1", "1", "1"]}}}}, {"name": "StatefulPartitionedCall/functional_1_1/MobileNetV3Small_1/expanded_conv_4_add_1/ArithmeticOptimizer/AddOpsRewrite_Leaf_1_Add", "op": "AddN", "input": ["StatefulPartitionedCall/functional_1_1/MobileNetV3Small_1/expanded_conv_3_project_bn_1/batchnorm/add_1", "StatefulPartitionedCall/functional_1_1/MobileNetV3Small_1/expanded_conv_4_project_bn_1/batchnorm/mul_1"], "attr": {"N": {"i": "2"}, "T": {"type": "DT_FLOAT"}, "_grappler_ArithmeticOptimizer_AddOpsRewriteStage": {"b": true}}}, {"name": "StatefulPartitionedCall/functional_1_1/MobileNetV3Small_1/expanded_conv_4_add_1/ArithmeticOptimizer/AddOpsRewrite_Add", "op": "AddV2", "input": ["StatefulPartitionedCall/functional_1_1/MobileNetV3Small_1/expanded_conv_4_project_bn_1/batchnorm/sub", "StatefulPartitionedCall/functional_1_1/MobileNetV3Small_1/expanded_conv_4_add_1/ArithmeticOptimizer/AddOpsRewrite_Leaf_1_Add"], "attr": {"T": {"type": "DT_FLOAT"}, "_grappler_ArithmeticOptimizer_AddOpsRewriteStage": {"b": true}}}, {"name": "StatefulPartitionedCall/functional_1_1/MobileNetV3Small_1/expanded_conv_5_expand_bn_1/batchnorm/add_1", "op": "_FusedConv2D", "input": ["StatefulPartitionedCall/functional_1_1/MobileNetV3Small_1/expanded_conv_4_add_1/ArithmeticOptimizer/AddOpsRewrite_Add", "StatefulPartitionedCall/functional_1_1/MobileNetV3Small_1/expanded_conv_5_expand_1/convolution/merged_input", "StatefulPartitionedCall/functional_1_1/MobileNetV3Small_1/expanded_conv_5_expand_bn_1/batchnorm/sub"], "device": "/device:CPU:0", "attr": {"num_host_args": {"i": "0"}, "data_format": {"s": "TkhXQw=="}, "filter_format": {"s": "SFdJTw=="}, "fused_ops": {"list": {"s": ["Qmlhc0FkZA=="]}}, "num_args": {"i": "1"}, "strides": {"list": {"i": ["1", "1", "1", "1"]}}, "TArgs": {"list": {"type": ["DT_FLOAT"]}}, "padding": {"s": "U0FNRQ=="}, "use_cudnn_on_gpu": {"b": true}, "leakyrelu_alpha": {"f": 0.2}, "epsilon": {"f": 0.0}, "T": {"type": "DT_FLOAT"}, "explicit_paddings": {"list": {}}, "dilations": {"list": {"i": ["1", "1", "1", "1"]}}}}, {"name": "StatefulPartitionedCall/functional_1_1/MobileNetV3Small_1/activation_5_1/truediv", "op": "Mul", "input": ["ConstantFolding/StatefulPartitionedCall/functional_1_1/MobileNetV3Small_1/activation_5_1/truediv_recip", "StatefulPartitionedCall/functional_1_1/MobileNetV3Small_1/expanded_conv_5_expand_bn_1/batchnorm/add_1"], "attr": {"_grappler_ArithmeticOptimizer_MinimizeBroadcasts": {"b": true}, "T": {"type": "DT_FLOAT"}}}, {"name": "StatefulPartitionedCall/functional_1_1/MobileNetV3Small_1/activation_5_1/add", "op": "AddV2", "input": ["StatefulPartitionedCall/functional_1_1/MobileNetV3Small_1/expanded_conv_5_expand_bn_1/batchnorm/add_1", "StatefulPartitionedCall/functional_1_1/MobileNetV3Small_1/activation_5_1/Const"], "attr": {"T": {"type": "DT_FLOAT"}}}, {"name": "StatefulPartitionedCall/functional_1_1/MobileNetV3Small_1/activation_5_1/Relu6", "op": "Relu6", "input": ["StatefulPartitionedCall/functional_1_1/MobileNetV3Small_1/activation_5_1/add"], "attr": {"T": {"type": "DT_FLOAT"}}}, {"name": "StatefulPartitionedCall/functional_1_1/MobileNetV3Small_1/activation_5_1/mul", "op": "Mul", "input": ["StatefulPartitionedCall/functional_1_1/MobileNetV3Small_1/activation_5_1/truediv", "StatefulPartitionedCall/functional_1_1/MobileNetV3Small_1/activation_5_1/Relu6"], "attr": {"_grappler_ArithmeticOptimizer_MinimizeBroadcasts": {"b": true}, "T": {"type": "DT_FLOAT"}}}, {"name": "StatefulPartitionedCall/functional_1_1/MobileNetV3Small_1/expanded_conv_5_depthwise_1/depthwise", "op": "DepthwiseConv2dNative", "input": ["StatefulPartitionedCall/functional_1_1/MobileNetV3Small_1/activation_5_1/mul", "StatefulPartitionedCall/functional_1_1/MobileNetV3Small_1/expanded_conv_5_depthwise_1/depthwise/ReadVariableOp"], "attr": {"padding": {"s": "U0FNRQ=="}, "data_format": {"s": "TkhXQw=="}, "T": {"type": "DT_FLOAT"}, "explicit_paddings": {"list": {}}, "dilations": {"list": {"i": ["1", "1", "1", "1"]}}, "strides": {"list": {"i": ["1", "1", "1", "1"]}}}}, {"name": "StatefulPartitionedCall/functional_1_1/MobileNetV3Small_1/expanded_conv_5_depthwise_bn_1/batchnorm/mul_1", "op": "Mul", "input": ["StatefulPartitionedCall/functional_1_1/MobileNetV3Small_1/expanded_conv_5_depthwise_1/depthwise", "StatefulPartitionedCall/functional_1_1/MobileNetV3Small_1/expanded_conv_5_depthwise_bn_1/batchnorm/mul"], "attr": {"T": {"type": "DT_FLOAT"}}}, {"name": "StatefulPartitionedCall/functional_1_1/MobileNetV3Small_1/expanded_conv_5_depthwise_bn_1/batchnorm/add_1", "op": "AddV2", "input": ["StatefulPartitionedCall/functional_1_1/MobileNetV3Small_1/expanded_conv_5_depthwise_bn_1/batchnorm/mul_1", "StatefulPartitionedCall/functional_1_1/MobileNetV3Small_1/expanded_conv_5_depthwise_bn_1/batchnorm/sub"], "attr": {"T": {"type": "DT_FLOAT"}}}, {"name": "StatefulPartitionedCall/functional_1_1/MobileNetV3Small_1/activation_6_1/truediv", "op": "Mul", "input": ["ConstantFolding/StatefulPartitionedCall/functional_1_1/MobileNetV3Small_1/activation_6_1/truediv_recip", "StatefulPartitionedCall/functional_1_1/MobileNetV3Small_1/expanded_conv_5_depthwise_bn_1/batchnorm/add_1"], "attr": {"_grappler_ArithmeticOptimizer_MinimizeBroadcasts": {"b": true}, "T": {"type": "DT_FLOAT"}}}, {"name": "StatefulPartitionedCall/functional_1_1/MobileNetV3Small_1/activation_6_1/add", "op": "AddV2", "input": ["StatefulPartitionedCall/functional_1_1/MobileNetV3Small_1/expanded_conv_5_depthwise_bn_1/batchnorm/add_1", "StatefulPartitionedCall/functional_1_1/MobileNetV3Small_1/activation_6_1/Const"], "attr": {"T": {"type": "DT_FLOAT"}}}, {"name": "StatefulPartitionedCall/functional_1_1/MobileNetV3Small_1/activation_6_1/Relu6", "op": "Relu6", "input": ["StatefulPartitionedCall/functional_1_1/MobileNetV3Small_1/activation_6_1/add"], "attr": {"T": {"type": "DT_FLOAT"}}}, {"name": "StatefulPartitionedCall/functional_1_1/MobileNetV3Small_1/activation_6_1/mul", "op": "Mul", "input": ["StatefulPartitionedCall/functional_1_1/MobileNetV3Small_1/activation_6_1/truediv", "StatefulPartitionedCall/functional_1_1/MobileNetV3Small_1/activation_6_1/Relu6"], "attr": {"_grappler_ArithmeticOptimizer_MinimizeBroadcasts": {"b": true}, "T": {"type": "DT_FLOAT"}}}, {"name": "StatefulPartitionedCall/functional_1_1/MobileNetV3Small_1/expanded_conv_5_squeeze_excite_avg_pool_1/Mean", "op": "Mean", "input": ["StatefulPartitionedCall/functional_1_1/MobileNetV3Small_1/activation_6_1/mul", "StatefulPartitionedCall/functional_1_1/MobileNetV3Small_1/expanded_conv_5_squeeze_excite_avg_pool_1/Mean/reduction_indices"], "attr": {"Tidx": {"type": "DT_INT32"}, "T": {"type": "DT_FLOAT"}, "keep_dims": {"b": true}}}, {"name": "StatefulPartitionedCall/functional_1_1/MobileNetV3Small_1/expanded_conv_5_squeeze_excite_relu_1/Relu", "op": "_FusedConv2D", "input": ["StatefulPartitionedCall/functional_1_1/MobileNetV3Small_1/expanded_conv_5_squeeze_excite_avg_pool_1/Mean", "StatefulPartitionedCall/functional_1_1/MobileNetV3Small_1/expanded_conv_5_squeeze_excite_conv_1/convolution/ReadVariableOp", "StatefulPartitionedCall/functional_1_1/MobileNetV3Small_1/expanded_conv_5_squeeze_excite_conv_1/Squeeze"], "device": "/device:CPU:0", "attr": {"num_host_args": {"i": "0"}, "data_format": {"s": "TkhXQw=="}, "filter_format": {"s": "SFdJTw=="}, "fused_ops": {"list": {"s": ["Qmlhc0FkZA==", "UmVsdQ=="]}}, "num_args": {"i": "1"}, "strides": {"list": {"i": ["1", "1", "1", "1"]}}, "TArgs": {"list": {"type": ["DT_FLOAT"]}}, "padding": {"s": "U0FNRQ=="}, "use_cudnn_on_gpu": {"b": true}, "leakyrelu_alpha": {"f": 0.2}, "epsilon": {"f": 0.0}, "T": {"type": "DT_FLOAT"}, "explicit_paddings": {"list": {}}, "dilations": {"list": {"i": ["1", "1", "1", "1"]}}}}, {"name": "StatefulPartitionedCall/functional_1_1/MobileNetV3Small_1/expanded_conv_5_squeeze_excite_conv_1_2/BiasAdd", "op": "_FusedConv2D", "input": ["StatefulPartitionedCall/functional_1_1/MobileNetV3Small_1/expanded_conv_5_squeeze_excite_relu_1/Relu", "StatefulPartitionedCall/functional_1_1/MobileNetV3Small_1/expanded_conv_5_squeeze_excite_conv_1_2/convolution/ReadVariableOp", "StatefulPartitionedCall/functional_1_1/MobileNetV3Small_1/expanded_conv_5_squeeze_excite_conv_1_2/Squeeze"], "device": "/device:CPU:0", "attr": {"num_host_args": {"i": "0"}, "data_format": {"s": "TkhXQw=="}, "filter_format": {"s": "SFdJTw=="}, "strides": {"list": {"i": ["1", "1", "1", "1"]}}, "num_args": {"i": "1"}, "fused_ops": {"list": {"s": ["Qmlhc0FkZA=="]}}, "TArgs": {"list": {"type": ["DT_FLOAT"]}}, "padding": {"s": "U0FNRQ=="}, "use_cudnn_on_gpu": {"b": true}, "leakyrelu_alpha": {"f": 0.2}, "epsilon": {"f": 0.0}, "T": {"type": "DT_FLOAT"}, "explicit_paddings": {"list": {}}, "dilations": {"list": {"i": ["1", "1", "1", "1"]}}}}, {"name": "StatefulPartitionedCall/functional_1_1/MobileNetV3Small_1/Add_3", "op": "AddV2", "input": ["StatefulPartitionedCall/functional_1_1/MobileNetV3Small_1/expanded_conv_5_squeeze_excite_conv_1_2/BiasAdd", "StatefulPartitionedCall/functional_1_1/MobileNetV3Small_1/Const_6"], "attr": {"T": {"type": "DT_FLOAT"}}}, {"name": "StatefulPartitionedCall/functional_1_1/MobileNetV3Small_1/re_lu_8_1/Relu6", "op": "Relu6", "input": ["StatefulPartitionedCall/functional_1_1/MobileNetV3Small_1/Add_3"], "attr": {"T": {"type": "DT_FLOAT"}}}, {"name": "StatefulPartitionedCall/functional_1_1/MobileNetV3Small_1/Mul_3", "op": "Mul", "input": ["StatefulPartitionedCall/functional_1_1/MobileNetV3Small_1/Const_7", "StatefulPartitionedCall/functional_1_1/MobileNetV3Small_1/re_lu_8_1/Relu6"], "attr": {"_grappler_ArithmeticOptimizer_MinimizeBroadcasts": {"b": true}, "T": {"type": "DT_FLOAT"}}}, {"name": "StatefulPartitionedCall/functional_1_1/MobileNetV3Small_1/expanded_conv_5_squeeze_excite_mul_1/Mul", "op": "Mul", "input": ["StatefulPartitionedCall/functional_1_1/MobileNetV3Small_1/Mul_3", "StatefulPartitionedCall/functional_1_1/MobileNetV3Small_1/activation_6_1/mul"], "attr": {"_grappler_ArithmeticOptimizer_MinimizeBroadcasts": {"b": true}, "T": {"type": "DT_FLOAT"}}}, {"name": "StatefulPartitionedCall/functional_1_1/MobileNetV3Small_1/expanded_conv_5_project_bn_1/batchnorm/mul_1", "op": "Conv2D", "input": ["StatefulPartitionedCall/functional_1_1/MobileNetV3Small_1/expanded_conv_5_squeeze_excite_mul_1/Mul", "StatefulPartitionedCall/functional_1_1/MobileNetV3Small_1/expanded_conv_5_project_1/convolution/merged_input"], "device": "/device:CPU:0", "attr": {"padding": {"s": "U0FNRQ=="}, "data_format": {"s": "TkhXQw=="}, "strides": {"list": {"i": ["1", "1", "1", "1"]}}, "use_cudnn_on_gpu": {"b": true}, "T": {"type": "DT_FLOAT"}, "explicit_paddings": {"list": {}}, "dilations": {"list": {"i": ["1", "1", "1", "1"]}}}}, {"name": "StatefulPartitionedCall/functional_1_1/MobileNetV3Small_1/expanded_conv_5_add_1/ArithmeticOptimizer/AddOpsRewrite_Leaf_1_Add", "op": "AddN", "input": ["StatefulPartitionedCall/functional_1_1/MobileNetV3Small_1/expanded_conv_4_add_1/ArithmeticOptimizer/AddOpsRewrite_Add", "StatefulPartitionedCall/functional_1_1/MobileNetV3Small_1/expanded_conv_5_project_bn_1/batchnorm/mul_1"], "attr": {"N": {"i": "2"}, "T": {"type": "DT_FLOAT"}, "_grappler_ArithmeticOptimizer_AddOpsRewriteStage": {"b": true}}}, {"name": "StatefulPartitionedCall/functional_1_1/MobileNetV3Small_1/expanded_conv_5_add_1/ArithmeticOptimizer/AddOpsRewrite_Add", "op": "AddV2", "input": ["StatefulPartitionedCall/functional_1_1/MobileNetV3Small_1/expanded_conv_5_project_bn_1/batchnorm/sub", "StatefulPartitionedCall/functional_1_1/MobileNetV3Small_1/expanded_conv_5_add_1/ArithmeticOptimizer/AddOpsRewrite_Leaf_1_Add"], "attr": {"T": {"type": "DT_FLOAT"}, "_grappler_ArithmeticOptimizer_AddOpsRewriteStage": {"b": true}}}, {"name": "StatefulPartitionedCall/functional_1_1/MobileNetV3Small_1/expanded_conv_6_expand_bn_1/batchnorm/add_1", "op": "_FusedConv2D", "input": ["StatefulPartitionedCall/functional_1_1/MobileNetV3Small_1/expanded_conv_5_add_1/ArithmeticOptimizer/AddOpsRewrite_Add", "StatefulPartitionedCall/functional_1_1/MobileNetV3Small_1/expanded_conv_6_expand_1/convolution/merged_input", "StatefulPartitionedCall/functional_1_1/MobileNetV3Small_1/expanded_conv_6_expand_bn_1/batchnorm/sub"], "device": "/device:CPU:0", "attr": {"num_host_args": {"i": "0"}, "data_format": {"s": "TkhXQw=="}, "filter_format": {"s": "SFdJTw=="}, "strides": {"list": {"i": ["1", "1", "1", "1"]}}, "num_args": {"i": "1"}, "fused_ops": {"list": {"s": ["Qmlhc0FkZA=="]}}, "TArgs": {"list": {"type": ["DT_FLOAT"]}}, "padding": {"s": "U0FNRQ=="}, "use_cudnn_on_gpu": {"b": true}, "leakyrelu_alpha": {"f": 0.2}, "epsilon": {"f": 0.0}, "T": {"type": "DT_FLOAT"}, "explicit_paddings": {"list": {}}, "dilations": {"list": {"i": ["1", "1", "1", "1"]}}}}, {"name": "StatefulPartitionedCall/functional_1_1/MobileNetV3Small_1/activation_7_1/truediv", "op": "Mul", "input": ["ConstantFolding/StatefulPartitionedCall/functional_1_1/MobileNetV3Small_1/activation_7_1/truediv_recip", "StatefulPartitionedCall/functional_1_1/MobileNetV3Small_1/expanded_conv_6_expand_bn_1/batchnorm/add_1"], "attr": {"_grappler_ArithmeticOptimizer_MinimizeBroadcasts": {"b": true}, "T": {"type": "DT_FLOAT"}}}, {"name": "StatefulPartitionedCall/functional_1_1/MobileNetV3Small_1/activation_7_1/add", "op": "AddV2", "input": ["StatefulPartitionedCall/functional_1_1/MobileNetV3Small_1/expanded_conv_6_expand_bn_1/batchnorm/add_1", "StatefulPartitionedCall/functional_1_1/MobileNetV3Small_1/activation_7_1/Const"], "attr": {"T": {"type": "DT_FLOAT"}}}, {"name": "StatefulPartitionedCall/functional_1_1/MobileNetV3Small_1/activation_7_1/Relu6", "op": "Relu6", "input": ["StatefulPartitionedCall/functional_1_1/MobileNetV3Small_1/activation_7_1/add"], "attr": {"T": {"type": "DT_FLOAT"}}}, {"name": "StatefulPartitionedCall/functional_1_1/MobileNetV3Small_1/activation_7_1/mul", "op": "Mul", "input": ["StatefulPartitionedCall/functional_1_1/MobileNetV3Small_1/activation_7_1/truediv", "StatefulPartitionedCall/functional_1_1/MobileNetV3Small_1/activation_7_1/Relu6"], "attr": {"_grappler_ArithmeticOptimizer_MinimizeBroadcasts": {"b": true}, "T": {"type": "DT_FLOAT"}}}, {"name": "StatefulPartitionedCall/functional_1_1/MobileNetV3Small_1/expanded_conv_6_depthwise_1/depthwise", "op": "DepthwiseConv2dNative", "input": ["StatefulPartitionedCall/functional_1_1/MobileNetV3Small_1/activation_7_1/mul", "StatefulPartitionedCall/functional_1_1/MobileNetV3Small_1/expanded_conv_6_depthwise_1/depthwise/ReadVariableOp"], "attr": {"padding": {"s": "U0FNRQ=="}, "data_format": {"s": "TkhXQw=="}, "T": {"type": "DT_FLOAT"}, "explicit_paddings": {"list": {}}, "dilations": {"list": {"i": ["1", "1", "1", "1"]}}, "strides": {"list": {"i": ["1", "1", "1", "1"]}}}}, {"name": "StatefulPartitionedCall/functional_1_1/MobileNetV3Small_1/expanded_conv_6_depthwise_bn_1/batchnorm/mul_1", "op": "Mul", "input": ["StatefulPartitionedCall/functional_1_1/MobileNetV3Small_1/expanded_conv_6_depthwise_1/depthwise", "StatefulPartitionedCall/functional_1_1/MobileNetV3Small_1/expanded_conv_6_depthwise_bn_1/batchnorm/mul"], "attr": {"T": {"type": "DT_FLOAT"}}}, {"name": "StatefulPartitionedCall/functional_1_1/MobileNetV3Small_1/expanded_conv_6_depthwise_bn_1/batchnorm/add_1", "op": "AddV2", "input": ["StatefulPartitionedCall/functional_1_1/MobileNetV3Small_1/expanded_conv_6_depthwise_bn_1/batchnorm/mul_1", "StatefulPartitionedCall/functional_1_1/MobileNetV3Small_1/expanded_conv_6_depthwise_bn_1/batchnorm/sub"], "attr": {"T": {"type": "DT_FLOAT"}}}, {"name": "StatefulPartitionedCall/functional_1_1/MobileNetV3Small_1/activation_8_1/truediv", "op": "Mul", "input": ["ConstantFolding/StatefulPartitionedCall/functional_1_1/MobileNetV3Small_1/activation_8_1/truediv_recip", "StatefulPartitionedCall/functional_1_1/MobileNetV3Small_1/expanded_conv_6_depthwise_bn_1/batchnorm/add_1"], "attr": {"_grappler_ArithmeticOptimizer_MinimizeBroadcasts": {"b": true}, "T": {"type": "DT_FLOAT"}}}, {"name": "StatefulPartitionedCall/functional_1_1/MobileNetV3Small_1/activation_8_1/add", "op": "AddV2", "input": ["StatefulPartitionedCall/functional_1_1/MobileNetV3Small_1/expanded_conv_6_depthwise_bn_1/batchnorm/add_1", "StatefulPartitionedCall/functional_1_1/MobileNetV3Small_1/activation_8_1/Const"], "attr": {"T": {"type": "DT_FLOAT"}}}, {"name": "StatefulPartitionedCall/functional_1_1/MobileNetV3Small_1/activation_8_1/Relu6", "op": "Relu6", "input": ["StatefulPartitionedCall/functional_1_1/MobileNetV3Small_1/activation_8_1/add"], "attr": {"T": {"type": "DT_FLOAT"}}}, {"name": "StatefulPartitionedCall/functional_1_1/MobileNetV3Small_1/activation_8_1/mul", "op": "Mul", "input": ["StatefulPartitionedCall/functional_1_1/MobileNetV3Small_1/activation_8_1/truediv", "StatefulPartitionedCall/functional_1_1/MobileNetV3Small_1/activation_8_1/Relu6"], "attr": {"_grappler_ArithmeticOptimizer_MinimizeBroadcasts": {"b": true}, "T": {"type": "DT_FLOAT"}}}, {"name": "StatefulPartitionedCall/functional_1_1/MobileNetV3Small_1/expanded_conv_6_squeeze_excite_avg_pool_1/Mean", "op": "Mean", "input": ["StatefulPartitionedCall/functional_1_1/MobileNetV3Small_1/activation_8_1/mul", "StatefulPartitionedCall/functional_1_1/MobileNetV3Small_1/expanded_conv_6_squeeze_excite_avg_pool_1/Mean/reduction_indices"], "attr": {"Tidx": {"type": "DT_INT32"}, "T": {"type": "DT_FLOAT"}, "keep_dims": {"b": true}}}, {"name": "StatefulPartitionedCall/functional_1_1/MobileNetV3Small_1/expanded_conv_6_squeeze_excite_relu_1/Relu", "op": "_FusedConv2D", "input": ["StatefulPartitionedCall/functional_1_1/MobileNetV3Small_1/expanded_conv_6_squeeze_excite_avg_pool_1/Mean", "StatefulPartitionedCall/functional_1_1/MobileNetV3Small_1/expanded_conv_6_squeeze_excite_conv_1/convolution/ReadVariableOp", "StatefulPartitionedCall/functional_1_1/MobileNetV3Small_1/expanded_conv_6_squeeze_excite_conv_1/Squeeze"], "device": "/device:CPU:0", "attr": {"num_host_args": {"i": "0"}, "data_format": {"s": "TkhXQw=="}, "filter_format": {"s": "SFdJTw=="}, "fused_ops": {"list": {"s": ["Qmlhc0FkZA==", "UmVsdQ=="]}}, "num_args": {"i": "1"}, "strides": {"list": {"i": ["1", "1", "1", "1"]}}, "TArgs": {"list": {"type": ["DT_FLOAT"]}}, "padding": {"s": "U0FNRQ=="}, "use_cudnn_on_gpu": {"b": true}, "leakyrelu_alpha": {"f": 0.2}, "epsilon": {"f": 0.0}, "T": {"type": "DT_FLOAT"}, "explicit_paddings": {"list": {}}, "dilations": {"list": {"i": ["1", "1", "1", "1"]}}}}, {"name": "StatefulPartitionedCall/functional_1_1/MobileNetV3Small_1/expanded_conv_6_squeeze_excite_conv_1_2/BiasAdd", "op": "_FusedConv2D", "input": ["StatefulPartitionedCall/functional_1_1/MobileNetV3Small_1/expanded_conv_6_squeeze_excite_relu_1/Relu", "StatefulPartitionedCall/functional_1_1/MobileNetV3Small_1/expanded_conv_6_squeeze_excite_conv_1_2/convolution/ReadVariableOp", "StatefulPartitionedCall/functional_1_1/MobileNetV3Small_1/expanded_conv_6_squeeze_excite_conv_1_2/Squeeze"], "device": "/device:CPU:0", "attr": {"num_host_args": {"i": "0"}, "data_format": {"s": "TkhXQw=="}, "filter_format": {"s": "SFdJTw=="}, "strides": {"list": {"i": ["1", "1", "1", "1"]}}, "num_args": {"i": "1"}, "fused_ops": {"list": {"s": ["Qmlhc0FkZA=="]}}, "TArgs": {"list": {"type": ["DT_FLOAT"]}}, "padding": {"s": "U0FNRQ=="}, "use_cudnn_on_gpu": {"b": true}, "leakyrelu_alpha": {"f": 0.2}, "epsilon": {"f": 0.0}, "T": {"type": "DT_FLOAT"}, "explicit_paddings": {"list": {}}, "dilations": {"list": {"i": ["1", "1", "1", "1"]}}}}, {"name": "StatefulPartitionedCall/functional_1_1/MobileNetV3Small_1/Add_4", "op": "AddV2", "input": ["StatefulPartitionedCall/functional_1_1/MobileNetV3Small_1/expanded_conv_6_squeeze_excite_conv_1_2/BiasAdd", "StatefulPartitionedCall/functional_1_1/MobileNetV3Small_1/Const_8"], "attr": {"T": {"type": "DT_FLOAT"}}}, {"name": "StatefulPartitionedCall/functional_1_1/MobileNetV3Small_1/re_lu_9_1/Relu6", "op": "Relu6", "input": ["StatefulPartitionedCall/functional_1_1/MobileNetV3Small_1/Add_4"], "attr": {"T": {"type": "DT_FLOAT"}}}, {"name": "StatefulPartitionedCall/functional_1_1/MobileNetV3Small_1/Mul_4", "op": "Mul", "input": ["StatefulPartitionedCall/functional_1_1/MobileNetV3Small_1/Const_9", "StatefulPartitionedCall/functional_1_1/MobileNetV3Small_1/re_lu_9_1/Relu6"], "attr": {"_grappler_ArithmeticOptimizer_MinimizeBroadcasts": {"b": true}, "T": {"type": "DT_FLOAT"}}}, {"name": "StatefulPartitionedCall/functional_1_1/MobileNetV3Small_1/expanded_conv_6_squeeze_excite_mul_1/Mul", "op": "Mul", "input": ["StatefulPartitionedCall/functional_1_1/MobileNetV3Small_1/Mul_4", "StatefulPartitionedCall/functional_1_1/MobileNetV3Small_1/activation_8_1/mul"], "attr": {"_grappler_ArithmeticOptimizer_MinimizeBroadcasts": {"b": true}, "T": {"type": "DT_FLOAT"}}}, {"name": "StatefulPartitionedCall/functional_1_1/MobileNetV3Small_1/expanded_conv_6_project_bn_1/batchnorm/add_1", "op": "_FusedConv2D", "input": ["StatefulPartitionedCall/functional_1_1/MobileNetV3Small_1/expanded_conv_6_squeeze_excite_mul_1/Mul", "StatefulPartitionedCall/functional_1_1/MobileNetV3Small_1/expanded_conv_6_project_1/convolution/merged_input", "StatefulPartitionedCall/functional_1_1/MobileNetV3Small_1/expanded_conv_6_project_bn_1/batchnorm/sub"], "device": "/device:CPU:0", "attr": {"num_host_args": {"i": "0"}, "data_format": {"s": "TkhXQw=="}, "filter_format": {"s": "SFdJTw=="}, "fused_ops": {"list": {"s": ["Qmlhc0FkZA=="]}}, "num_args": {"i": "1"}, "strides": {"list": {"i": ["1", "1", "1", "1"]}}, "TArgs": {"list": {"type": ["DT_FLOAT"]}}, "padding": {"s": "U0FNRQ=="}, "use_cudnn_on_gpu": {"b": true}, "leakyrelu_alpha": {"f": 0.2}, "epsilon": {"f": 0.0}, "T": {"type": "DT_FLOAT"}, "explicit_paddings": {"list": {}}, "dilations": {"list": {"i": ["1", "1", "1", "1"]}}}}, {"name": "StatefulPartitionedCall/functional_1_1/MobileNetV3Small_1/expanded_conv_7_expand_bn_1/batchnorm/add_1", "op": "_FusedConv2D", "input": ["StatefulPartitionedCall/functional_1_1/MobileNetV3Small_1/expanded_conv_6_project_bn_1/batchnorm/add_1", "StatefulPartitionedCall/functional_1_1/MobileNetV3Small_1/expanded_conv_7_expand_1/convolution/merged_input", "StatefulPartitionedCall/functional_1_1/MobileNetV3Small_1/expanded_conv_7_expand_bn_1/batchnorm/sub"], "device": "/device:CPU:0", "attr": {"num_host_args": {"i": "0"}, "data_format": {"s": "TkhXQw=="}, "filter_format": {"s": "SFdJTw=="}, "fused_ops": {"list": {"s": ["Qmlhc0FkZA=="]}}, "num_args": {"i": "1"}, "strides": {"list": {"i": ["1", "1", "1", "1"]}}, "TArgs": {"list": {"type": ["DT_FLOAT"]}}, "padding": {"s": "U0FNRQ=="}, "use_cudnn_on_gpu": {"b": true}, "leakyrelu_alpha": {"f": 0.2}, "epsilon": {"f": 0.0}, "T": {"type": "DT_FLOAT"}, "explicit_paddings": {"list": {}}, "dilations": {"list": {"i": ["1", "1", "1", "1"]}}}}, {"name": "StatefulPartitionedCall/functional_1_1/MobileNetV3Small_1/activation_9_1/truediv", "op": "Mul", "input": ["ConstantFolding/StatefulPartitionedCall/functional_1_1/MobileNetV3Small_1/activation_9_1/truediv_recip", "StatefulPartitionedCall/functional_1_1/MobileNetV3Small_1/expanded_conv_7_expand_bn_1/batchnorm/add_1"], "attr": {"_grappler_ArithmeticOptimizer_MinimizeBroadcasts": {"b": true}, "T": {"type": "DT_FLOAT"}}}, {"name": "StatefulPartitionedCall/functional_1_1/MobileNetV3Small_1/activation_9_1/add", "op": "AddV2", "input": ["StatefulPartitionedCall/functional_1_1/MobileNetV3Small_1/expanded_conv_7_expand_bn_1/batchnorm/add_1", "StatefulPartitionedCall/functional_1_1/MobileNetV3Small_1/activation_9_1/Const"], "attr": {"T": {"type": "DT_FLOAT"}}}, {"name": "StatefulPartitionedCall/functional_1_1/MobileNetV3Small_1/activation_9_1/Relu6", "op": "Relu6", "input": ["StatefulPartitionedCall/functional_1_1/MobileNetV3Small_1/activation_9_1/add"], "attr": {"T": {"type": "DT_FLOAT"}}}, {"name": "StatefulPartitionedCall/functional_1_1/MobileNetV3Small_1/activation_9_1/mul", "op": "Mul", "input": ["StatefulPartitionedCall/functional_1_1/MobileNetV3Small_1/activation_9_1/truediv", "StatefulPartitionedCall/functional_1_1/MobileNetV3Small_1/activation_9_1/Relu6"], "attr": {"_grappler_ArithmeticOptimizer_MinimizeBroadcasts": {"b": true}, "T": {"type": "DT_FLOAT"}}}, {"name": "StatefulPartitionedCall/functional_1_1/MobileNetV3Small_1/expanded_conv_7_depthwise_1/depthwise", "op": "DepthwiseConv2dNative", "input": ["StatefulPartitionedCall/functional_1_1/MobileNetV3Small_1/activation_9_1/mul", "StatefulPartitionedCall/functional_1_1/MobileNetV3Small_1/expanded_conv_7_depthwise_1/depthwise/ReadVariableOp"], "attr": {"padding": {"s": "U0FNRQ=="}, "data_format": {"s": "TkhXQw=="}, "T": {"type": "DT_FLOAT"}, "explicit_paddings": {"list": {}}, "dilations": {"list": {"i": ["1", "1", "1", "1"]}}, "strides": {"list": {"i": ["1", "1", "1", "1"]}}}}, {"name": "StatefulPartitionedCall/functional_1_1/MobileNetV3Small_1/expanded_conv_7_depthwise_bn_1/batchnorm/mul_1", "op": "Mul", "input": ["StatefulPartitionedCall/functional_1_1/MobileNetV3Small_1/expanded_conv_7_depthwise_1/depthwise", "StatefulPartitionedCall/functional_1_1/MobileNetV3Small_1/expanded_conv_7_depthwise_bn_1/batchnorm/mul"], "attr": {"T": {"type": "DT_FLOAT"}}}, {"name": "StatefulPartitionedCall/functional_1_1/MobileNetV3Small_1/expanded_conv_7_depthwise_bn_1/batchnorm/add_1", "op": "AddV2", "input": ["StatefulPartitionedCall/functional_1_1/MobileNetV3Small_1/expanded_conv_7_depthwise_bn_1/batchnorm/mul_1", "StatefulPartitionedCall/functional_1_1/MobileNetV3Small_1/expanded_conv_7_depthwise_bn_1/batchnorm/sub"], "attr": {"T": {"type": "DT_FLOAT"}}}, {"name": "StatefulPartitionedCall/functional_1_1/MobileNetV3Small_1/activation_10_1/truediv", "op": "Mul", "input": ["ConstantFolding/StatefulPartitionedCall/functional_1_1/MobileNetV3Small_1/activation_10_1/truediv_recip", "StatefulPartitionedCall/functional_1_1/MobileNetV3Small_1/expanded_conv_7_depthwise_bn_1/batchnorm/add_1"], "attr": {"_grappler_ArithmeticOptimizer_MinimizeBroadcasts": {"b": true}, "T": {"type": "DT_FLOAT"}}}, {"name": "StatefulPartitionedCall/functional_1_1/MobileNetV3Small_1/activation_10_1/add", "op": "AddV2", "input": ["StatefulPartitionedCall/functional_1_1/MobileNetV3Small_1/expanded_conv_7_depthwise_bn_1/batchnorm/add_1", "StatefulPartitionedCall/functional_1_1/MobileNetV3Small_1/activation_10_1/Const"], "attr": {"T": {"type": "DT_FLOAT"}}}, {"name": "StatefulPartitionedCall/functional_1_1/MobileNetV3Small_1/activation_10_1/Relu6", "op": "Relu6", "input": ["StatefulPartitionedCall/functional_1_1/MobileNetV3Small_1/activation_10_1/add"], "attr": {"T": {"type": "DT_FLOAT"}}}, {"name": "StatefulPartitionedCall/functional_1_1/MobileNetV3Small_1/activation_10_1/mul", "op": "Mul", "input": ["StatefulPartitionedCall/functional_1_1/MobileNetV3Small_1/activation_10_1/truediv", "StatefulPartitionedCall/functional_1_1/MobileNetV3Small_1/activation_10_1/Relu6"], "attr": {"_grappler_ArithmeticOptimizer_MinimizeBroadcasts": {"b": true}, "T": {"type": "DT_FLOAT"}}}, {"name": "StatefulPartitionedCall/functional_1_1/MobileNetV3Small_1/expanded_conv_7_squeeze_excite_avg_pool_1/Mean", "op": "Mean", "input": ["StatefulPartitionedCall/functional_1_1/MobileNetV3Small_1/activation_10_1/mul", "StatefulPartitionedCall/functional_1_1/MobileNetV3Small_1/expanded_conv_7_squeeze_excite_avg_pool_1/Mean/reduction_indices"], "attr": {"Tidx": {"type": "DT_INT32"}, "T": {"type": "DT_FLOAT"}, "keep_dims": {"b": true}}}, {"name": "StatefulPartitionedCall/functional_1_1/MobileNetV3Small_1/expanded_conv_7_squeeze_excite_relu_1/Relu", "op": "_FusedConv2D", "input": ["StatefulPartitionedCall/functional_1_1/MobileNetV3Small_1/expanded_conv_7_squeeze_excite_avg_pool_1/Mean", "StatefulPartitionedCall/functional_1_1/MobileNetV3Small_1/expanded_conv_7_squeeze_excite_conv_1/convolution/ReadVariableOp", "StatefulPartitionedCall/functional_1_1/MobileNetV3Small_1/expanded_conv_7_squeeze_excite_conv_1/Squeeze"], "device": "/device:CPU:0", "attr": {"num_host_args": {"i": "0"}, "data_format": {"s": "TkhXQw=="}, "filter_format": {"s": "SFdJTw=="}, "fused_ops": {"list": {"s": ["Qmlhc0FkZA==", "UmVsdQ=="]}}, "num_args": {"i": "1"}, "strides": {"list": {"i": ["1", "1", "1", "1"]}}, "TArgs": {"list": {"type": ["DT_FLOAT"]}}, "padding": {"s": "U0FNRQ=="}, "use_cudnn_on_gpu": {"b": true}, "leakyrelu_alpha": {"f": 0.2}, "epsilon": {"f": 0.0}, "T": {"type": "DT_FLOAT"}, "explicit_paddings": {"list": {}}, "dilations": {"list": {"i": ["1", "1", "1", "1"]}}}}, {"name": "StatefulPartitionedCall/functional_1_1/MobileNetV3Small_1/expanded_conv_7_squeeze_excite_conv_1_2/BiasAdd", "op": "_FusedConv2D", "input": ["StatefulPartitionedCall/functional_1_1/MobileNetV3Small_1/expanded_conv_7_squeeze_excite_relu_1/Relu", "StatefulPartitionedCall/functional_1_1/MobileNetV3Small_1/expanded_conv_7_squeeze_excite_conv_1_2/convolution/ReadVariableOp", "StatefulPartitionedCall/functional_1_1/MobileNetV3Small_1/expanded_conv_7_squeeze_excite_conv_1_2/Squeeze"], "device": "/device:CPU:0", "attr": {"num_host_args": {"i": "0"}, "data_format": {"s": "TkhXQw=="}, "filter_format": {"s": "SFdJTw=="}, "strides": {"list": {"i": ["1", "1", "1", "1"]}}, "num_args": {"i": "1"}, "fused_ops": {"list": {"s": ["Qmlhc0FkZA=="]}}, "TArgs": {"list": {"type": ["DT_FLOAT"]}}, "padding": {"s": "U0FNRQ=="}, "use_cudnn_on_gpu": {"b": true}, "leakyrelu_alpha": {"f": 0.2}, "epsilon": {"f": 0.0}, "T": {"type": "DT_FLOAT"}, "explicit_paddings": {"list": {}}, "dilations": {"list": {"i": ["1", "1", "1", "1"]}}}}, {"name": "StatefulPartitionedCall/functional_1_1/MobileNetV3Small_1/Add_5", "op": "AddV2", "input": ["StatefulPartitionedCall/functional_1_1/MobileNetV3Small_1/expanded_conv_7_squeeze_excite_conv_1_2/BiasAdd", "StatefulPartitionedCall/functional_1_1/MobileNetV3Small_1/Const_10"], "attr": {"T": {"type": "DT_FLOAT"}}}, {"name": "StatefulPartitionedCall/functional_1_1/MobileNetV3Small_1/re_lu_10_1/Relu6", "op": "Relu6", "input": ["StatefulPartitionedCall/functional_1_1/MobileNetV3Small_1/Add_5"], "attr": {"T": {"type": "DT_FLOAT"}}}, {"name": "StatefulPartitionedCall/functional_1_1/MobileNetV3Small_1/Mul_5", "op": "Mul", "input": ["StatefulPartitionedCall/functional_1_1/MobileNetV3Small_1/Const_11", "StatefulPartitionedCall/functional_1_1/MobileNetV3Small_1/re_lu_10_1/Relu6"], "attr": {"_grappler_ArithmeticOptimizer_MinimizeBroadcasts": {"b": true}, "T": {"type": "DT_FLOAT"}}}, {"name": "StatefulPartitionedCall/functional_1_1/MobileNetV3Small_1/expanded_conv_7_squeeze_excite_mul_1/Mul", "op": "Mul", "input": ["StatefulPartitionedCall/functional_1_1/MobileNetV3Small_1/Mul_5", "StatefulPartitionedCall/functional_1_1/MobileNetV3Small_1/activation_10_1/mul"], "attr": {"_grappler_ArithmeticOptimizer_MinimizeBroadcasts": {"b": true}, "T": {"type": "DT_FLOAT"}}}, {"name": "StatefulPartitionedCall/functional_1_1/MobileNetV3Small_1/expanded_conv_7_project_bn_1/batchnorm/mul_1", "op": "Conv2D", "input": ["StatefulPartitionedCall/functional_1_1/MobileNetV3Small_1/expanded_conv_7_squeeze_excite_mul_1/Mul", "StatefulPartitionedCall/functional_1_1/MobileNetV3Small_1/expanded_conv_7_project_1/convolution/merged_input"], "device": "/device:CPU:0", "attr": {"padding": {"s": "U0FNRQ=="}, "data_format": {"s": "TkhXQw=="}, "use_cudnn_on_gpu": {"b": true}, "strides": {"list": {"i": ["1", "1", "1", "1"]}}, "T": {"type": "DT_FLOAT"}, "explicit_paddings": {"list": {}}, "dilations": {"list": {"i": ["1", "1", "1", "1"]}}}}, {"name": "StatefulPartitionedCall/functional_1_1/MobileNetV3Small_1/expanded_conv_7_add_1/ArithmeticOptimizer/AddOpsRewrite_Leaf_1_Add", "op": "AddN", "input": ["StatefulPartitionedCall/functional_1_1/MobileNetV3Small_1/expanded_conv_6_project_bn_1/batchnorm/add_1", "StatefulPartitionedCall/functional_1_1/MobileNetV3Small_1/expanded_conv_7_project_bn_1/batchnorm/mul_1"], "attr": {"N": {"i": "2"}, "T": {"type": "DT_FLOAT"}, "_grappler_ArithmeticOptimizer_AddOpsRewriteStage": {"b": true}}}, {"name": "StatefulPartitionedCall/functional_1_1/MobileNetV3Small_1/expanded_conv_7_add_1/ArithmeticOptimizer/AddOpsRewrite_Add", "op": "AddV2", "input": ["StatefulPartitionedCall/functional_1_1/MobileNetV3Small_1/expanded_conv_7_project_bn_1/batchnorm/sub", "StatefulPartitionedCall/functional_1_1/MobileNetV3Small_1/expanded_conv_7_add_1/ArithmeticOptimizer/AddOpsRewrite_Leaf_1_Add"], "attr": {"T": {"type": "DT_FLOAT"}, "_grappler_ArithmeticOptimizer_AddOpsRewriteStage": {"b": true}}}, {"name": "StatefulPartitionedCall/functional_1_1/MobileNetV3Small_1/expanded_conv_8_expand_bn_1/batchnorm/add_1", "op": "_FusedConv2D", "input": ["StatefulPartitionedCall/functional_1_1/MobileNetV3Small_1/expanded_conv_7_add_1/ArithmeticOptimizer/AddOpsRewrite_Add", "StatefulPartitionedCall/functional_1_1/MobileNetV3Small_1/expanded_conv_8_expand_1/convolution/merged_input", "StatefulPartitionedCall/functional_1_1/MobileNetV3Small_1/expanded_conv_8_expand_bn_1/batchnorm/sub"], "device": "/device:CPU:0", "attr": {"num_host_args": {"i": "0"}, "data_format": {"s": "TkhXQw=="}, "filter_format": {"s": "SFdJTw=="}, "fused_ops": {"list": {"s": ["Qmlhc0FkZA=="]}}, "num_args": {"i": "1"}, "strides": {"list": {"i": ["1", "1", "1", "1"]}}, "TArgs": {"list": {"type": ["DT_FLOAT"]}}, "padding": {"s": "U0FNRQ=="}, "use_cudnn_on_gpu": {"b": true}, "leakyrelu_alpha": {"f": 0.2}, "epsilon": {"f": 0.0}, "T": {"type": "DT_FLOAT"}, "explicit_paddings": {"list": {}}, "dilations": {"list": {"i": ["1", "1", "1", "1"]}}}}, {"name": "StatefulPartitionedCall/functional_1_1/MobileNetV3Small_1/activation_11_1/truediv", "op": "Mul", "input": ["ConstantFolding/StatefulPartitionedCall/functional_1_1/MobileNetV3Small_1/activation_11_1/truediv_recip", "StatefulPartitionedCall/functional_1_1/MobileNetV3Small_1/expanded_conv_8_expand_bn_1/batchnorm/add_1"], "attr": {"_grappler_ArithmeticOptimizer_MinimizeBroadcasts": {"b": true}, "T": {"type": "DT_FLOAT"}}}, {"name": "StatefulPartitionedCall/functional_1_1/MobileNetV3Small_1/activation_11_1/add", "op": "AddV2", "input": ["StatefulPartitionedCall/functional_1_1/MobileNetV3Small_1/expanded_conv_8_expand_bn_1/batchnorm/add_1", "StatefulPartitionedCall/functional_1_1/MobileNetV3Small_1/activation_11_1/Const"], "attr": {"T": {"type": "DT_FLOAT"}}}, {"name": "StatefulPartitionedCall/functional_1_1/MobileNetV3Small_1/activation_11_1/Relu6", "op": "Relu6", "input": ["StatefulPartitionedCall/functional_1_1/MobileNetV3Small_1/activation_11_1/add"], "attr": {"T": {"type": "DT_FLOAT"}}}, {"name": "StatefulPartitionedCall/functional_1_1/MobileNetV3Small_1/activation_11_1/mul", "op": "Mul", "input": ["StatefulPartitionedCall/functional_1_1/MobileNetV3Small_1/activation_11_1/truediv", "StatefulPartitionedCall/functional_1_1/MobileNetV3Small_1/activation_11_1/Relu6"], "attr": {"_grappler_ArithmeticOptimizer_MinimizeBroadcasts": {"b": true}, "T": {"type": "DT_FLOAT"}}}, {"name": "StatefulPartitionedCall/functional_1_1/MobileNetV3Small_1/expanded_conv_8_depthwise_pad_1/Pad", "op": "Pad", "input": ["StatefulPartitionedCall/functional_1_1/MobileNetV3Small_1/activation_11_1/mul", "StatefulPartitionedCall/functional_1_1/MobileNetV3Small_1/expanded_conv_8_depthwise_pad_1/Const"], "attr": {"Tpaddings": {"type": "DT_INT32"}, "T": {"type": "DT_FLOAT"}}}, {"name": "StatefulPartitionedCall/functional_1_1/MobileNetV3Small_1/expanded_conv_8_depthwise_1/depthwise", "op": "DepthwiseConv2dNative", "input": ["StatefulPartitionedCall/functional_1_1/MobileNetV3Small_1/expanded_conv_8_depthwise_pad_1/Pad", "StatefulPartitionedCall/functional_1_1/MobileNetV3Small_1/expanded_conv_8_depthwise_1/depthwise/ReadVariableOp"], "attr": {"padding": {"s": "VkFMSUQ="}, "data_format": {"s": "TkhXQw=="}, "T": {"type": "DT_FLOAT"}, "explicit_paddings": {"list": {}}, "dilations": {"list": {"i": ["1", "1", "1", "1"]}}, "strides": {"list": {"i": ["1", "2", "2", "1"]}}}}, {"name": "StatefulPartitionedCall/functional_1_1/MobileNetV3Small_1/expanded_conv_8_depthwise_bn_1/batchnorm/mul_1", "op": "Mul", "input": ["StatefulPartitionedCall/functional_1_1/MobileNetV3Small_1/expanded_conv_8_depthwise_1/depthwise", "StatefulPartitionedCall/functional_1_1/MobileNetV3Small_1/expanded_conv_8_depthwise_bn_1/batchnorm/mul"], "attr": {"T": {"type": "DT_FLOAT"}}}, {"name": "StatefulPartitionedCall/functional_1_1/MobileNetV3Small_1/expanded_conv_8_depthwise_bn_1/batchnorm/add_1", "op": "AddV2", "input": ["StatefulPartitionedCall/functional_1_1/MobileNetV3Small_1/expanded_conv_8_depthwise_bn_1/batchnorm/mul_1", "StatefulPartitionedCall/functional_1_1/MobileNetV3Small_1/expanded_conv_8_depthwise_bn_1/batchnorm/sub"], "attr": {"T": {"type": "DT_FLOAT"}}}, {"name": "StatefulPartitionedCall/functional_1_1/MobileNetV3Small_1/activation_12_1/truediv", "op": "Mul", "input": ["ConstantFolding/StatefulPartitionedCall/functional_1_1/MobileNetV3Small_1/activation_12_1/truediv_recip", "StatefulPartitionedCall/functional_1_1/MobileNetV3Small_1/expanded_conv_8_depthwise_bn_1/batchnorm/add_1"], "attr": {"_grappler_ArithmeticOptimizer_MinimizeBroadcasts": {"b": true}, "T": {"type": "DT_FLOAT"}}}, {"name": "StatefulPartitionedCall/functional_1_1/MobileNetV3Small_1/activation_12_1/add", "op": "AddV2", "input": ["StatefulPartitionedCall/functional_1_1/MobileNetV3Small_1/expanded_conv_8_depthwise_bn_1/batchnorm/add_1", "StatefulPartitionedCall/functional_1_1/MobileNetV3Small_1/activation_12_1/Const"], "attr": {"T": {"type": "DT_FLOAT"}}}, {"name": "StatefulPartitionedCall/functional_1_1/MobileNetV3Small_1/activation_12_1/Relu6", "op": "Relu6", "input": ["StatefulPartitionedCall/functional_1_1/MobileNetV3Small_1/activation_12_1/add"], "attr": {"T": {"type": "DT_FLOAT"}}}, {"name": "StatefulPartitionedCall/functional_1_1/MobileNetV3Small_1/activation_12_1/mul", "op": "Mul", "input": ["StatefulPartitionedCall/functional_1_1/MobileNetV3Small_1/activation_12_1/truediv", "StatefulPartitionedCall/functional_1_1/MobileNetV3Small_1/activation_12_1/Relu6"], "attr": {"_grappler_ArithmeticOptimizer_MinimizeBroadcasts": {"b": true}, "T": {"type": "DT_FLOAT"}}}, {"name": "StatefulPartitionedCall/functional_1_1/MobileNetV3Small_1/expanded_conv_8_squeeze_excite_avg_pool_1/Mean", "op": "Mean", "input": ["StatefulPartitionedCall/functional_1_1/MobileNetV3Small_1/activation_12_1/mul", "StatefulPartitionedCall/functional_1_1/MobileNetV3Small_1/expanded_conv_8_squeeze_excite_avg_pool_1/Mean/reduction_indices"], "attr": {"T": {"type": "DT_FLOAT"}, "Tidx": {"type": "DT_INT32"}, "keep_dims": {"b": true}}}, {"name": "StatefulPartitionedCall/functional_1_1/MobileNetV3Small_1/expanded_conv_8_squeeze_excite_relu_1/Relu", "op": "_FusedConv2D", "input": ["StatefulPartitionedCall/functional_1_1/MobileNetV3Small_1/expanded_conv_8_squeeze_excite_avg_pool_1/Mean", "StatefulPartitionedCall/functional_1_1/MobileNetV3Small_1/expanded_conv_8_squeeze_excite_conv_1/convolution/ReadVariableOp", "StatefulPartitionedCall/functional_1_1/MobileNetV3Small_1/expanded_conv_8_squeeze_excite_conv_1/Squeeze"], "device": "/device:CPU:0", "attr": {"num_host_args": {"i": "0"}, "data_format": {"s": "TkhXQw=="}, "filter_format": {"s": "SFdJTw=="}, "strides": {"list": {"i": ["1", "1", "1", "1"]}}, "num_args": {"i": "1"}, "fused_ops": {"list": {"s": ["Qmlhc0FkZA==", "UmVsdQ=="]}}, "TArgs": {"list": {"type": ["DT_FLOAT"]}}, "padding": {"s": "U0FNRQ=="}, "use_cudnn_on_gpu": {"b": true}, "leakyrelu_alpha": {"f": 0.2}, "epsilon": {"f": 0.0}, "T": {"type": "DT_FLOAT"}, "explicit_paddings": {"list": {}}, "dilations": {"list": {"i": ["1", "1", "1", "1"]}}}}, {"name": "StatefulPartitionedCall/functional_1_1/MobileNetV3Small_1/expanded_conv_8_squeeze_excite_conv_1_2/BiasAdd", "op": "_FusedConv2D", "input": ["StatefulPartitionedCall/functional_1_1/MobileNetV3Small_1/expanded_conv_8_squeeze_excite_relu_1/Relu", "StatefulPartitionedCall/functional_1_1/MobileNetV3Small_1/expanded_conv_8_squeeze_excite_conv_1_2/convolution/ReadVariableOp", "StatefulPartitionedCall/functional_1_1/MobileNetV3Small_1/expanded_conv_8_squeeze_excite_conv_1_2/Squeeze"], "device": "/device:CPU:0", "attr": {"num_host_args": {"i": "0"}, "data_format": {"s": "TkhXQw=="}, "filter_format": {"s": "SFdJTw=="}, "strides": {"list": {"i": ["1", "1", "1", "1"]}}, "num_args": {"i": "1"}, "fused_ops": {"list": {"s": ["Qmlhc0FkZA=="]}}, "TArgs": {"list": {"type": ["DT_FLOAT"]}}, "padding": {"s": "U0FNRQ=="}, "use_cudnn_on_gpu": {"b": true}, "leakyrelu_alpha": {"f": 0.2}, "epsilon": {"f": 0.0}, "T": {"type": "DT_FLOAT"}, "explicit_paddings": {"list": {}}, "dilations": {"list": {"i": ["1", "1", "1", "1"]}}}}, {"name": "StatefulPartitionedCall/functional_1_1/MobileNetV3Small_1/Add_6", "op": "AddV2", "input": ["StatefulPartitionedCall/functional_1_1/MobileNetV3Small_1/expanded_conv_8_squeeze_excite_conv_1_2/BiasAdd", "StatefulPartitionedCall/functional_1_1/MobileNetV3Small_1/Const_12"], "attr": {"T": {"type": "DT_FLOAT"}}}, {"name": "StatefulPartitionedCall/functional_1_1/MobileNetV3Small_1/re_lu_11_1/Relu6", "op": "Relu6", "input": ["StatefulPartitionedCall/functional_1_1/MobileNetV3Small_1/Add_6"], "attr": {"T": {"type": "DT_FLOAT"}}}, {"name": "StatefulPartitionedCall/functional_1_1/MobileNetV3Small_1/Mul_6", "op": "Mul", "input": ["StatefulPartitionedCall/functional_1_1/MobileNetV3Small_1/Const_13", "StatefulPartitionedCall/functional_1_1/MobileNetV3Small_1/re_lu_11_1/Relu6"], "attr": {"_grappler_ArithmeticOptimizer_MinimizeBroadcasts": {"b": true}, "T": {"type": "DT_FLOAT"}}}, {"name": "StatefulPartitionedCall/functional_1_1/MobileNetV3Small_1/expanded_conv_8_squeeze_excite_mul_1/Mul", "op": "Mul", "input": ["StatefulPartitionedCall/functional_1_1/MobileNetV3Small_1/Mul_6", "StatefulPartitionedCall/functional_1_1/MobileNetV3Small_1/activation_12_1/mul"], "attr": {"_grappler_ArithmeticOptimizer_MinimizeBroadcasts": {"b": true}, "T": {"type": "DT_FLOAT"}}}, {"name": "StatefulPartitionedCall/functional_1_1/MobileNetV3Small_1/expanded_conv_8_project_bn_1/batchnorm/add_1", "op": "_FusedConv2D", "input": ["StatefulPartitionedCall/functional_1_1/MobileNetV3Small_1/expanded_conv_8_squeeze_excite_mul_1/Mul", "StatefulPartitionedCall/functional_1_1/MobileNetV3Small_1/expanded_conv_8_project_1/convolution/merged_input", "StatefulPartitionedCall/functional_1_1/MobileNetV3Small_1/expanded_conv_8_project_bn_1/batchnorm/sub"], "device": "/device:CPU:0", "attr": {"num_host_args": {"i": "0"}, "data_format": {"s": "TkhXQw=="}, "filter_format": {"s": "SFdJTw=="}, "fused_ops": {"list": {"s": ["Qmlhc0FkZA=="]}}, "num_args": {"i": "1"}, "strides": {"list": {"i": ["1", "1", "1", "1"]}}, "TArgs": {"list": {"type": ["DT_FLOAT"]}}, "padding": {"s": "U0FNRQ=="}, "use_cudnn_on_gpu": {"b": true}, "leakyrelu_alpha": {"f": 0.2}, "epsilon": {"f": 0.0}, "T": {"type": "DT_FLOAT"}, "explicit_paddings": {"list": {}}, "dilations": {"list": {"i": ["1", "1", "1", "1"]}}}}, {"name": "StatefulPartitionedCall/functional_1_1/MobileNetV3Small_1/expanded_conv_9_expand_bn_1/batchnorm/add_1", "op": "_FusedConv2D", "input": ["StatefulPartitionedCall/functional_1_1/MobileNetV3Small_1/expanded_conv_8_project_bn_1/batchnorm/add_1", "StatefulPartitionedCall/functional_1_1/MobileNetV3Small_1/expanded_conv_9_expand_1/convolution/merged_input", "StatefulPartitionedCall/functional_1_1/MobileNetV3Small_1/expanded_conv_9_expand_bn_1/batchnorm/sub"], "device": "/device:CPU:0", "attr": {"num_host_args": {"i": "0"}, "data_format": {"s": "TkhXQw=="}, "filter_format": {"s": "SFdJTw=="}, "fused_ops": {"list": {"s": ["Qmlhc0FkZA=="]}}, "num_args": {"i": "1"}, "strides": {"list": {"i": ["1", "1", "1", "1"]}}, "TArgs": {"list": {"type": ["DT_FLOAT"]}}, "padding": {"s": "U0FNRQ=="}, "use_cudnn_on_gpu": {"b": true}, "leakyrelu_alpha": {"f": 0.2}, "epsilon": {"f": 0.0}, "T": {"type": "DT_FLOAT"}, "explicit_paddings": {"list": {}}, "dilations": {"list": {"i": ["1", "1", "1", "1"]}}}}, {"name": "StatefulPartitionedCall/functional_1_1/MobileNetV3Small_1/activation_13_1/truediv", "op": "Mul", "input": ["ConstantFolding/StatefulPartitionedCall/functional_1_1/MobileNetV3Small_1/activation_13_1/truediv_recip", "StatefulPartitionedCall/functional_1_1/MobileNetV3Small_1/expanded_conv_9_expand_bn_1/batchnorm/add_1"], "attr": {"_grappler_ArithmeticOptimizer_MinimizeBroadcasts": {"b": true}, "T": {"type": "DT_FLOAT"}}}, {"name": "StatefulPartitionedCall/functional_1_1/MobileNetV3Small_1/activation_13_1/add", "op": "AddV2", "input": ["StatefulPartitionedCall/functional_1_1/MobileNetV3Small_1/expanded_conv_9_expand_bn_1/batchnorm/add_1", "StatefulPartitionedCall/functional_1_1/MobileNetV3Small_1/activation_13_1/Const"], "attr": {"T": {"type": "DT_FLOAT"}}}, {"name": "StatefulPartitionedCall/functional_1_1/MobileNetV3Small_1/activation_13_1/Relu6", "op": "Relu6", "input": ["StatefulPartitionedCall/functional_1_1/MobileNetV3Small_1/activation_13_1/add"], "attr": {"T": {"type": "DT_FLOAT"}}}, {"name": "StatefulPartitionedCall/functional_1_1/MobileNetV3Small_1/activation_13_1/mul", "op": "Mul", "input": ["StatefulPartitionedCall/functional_1_1/MobileNetV3Small_1/activation_13_1/truediv", "StatefulPartitionedCall/functional_1_1/MobileNetV3Small_1/activation_13_1/Relu6"], "attr": {"_grappler_ArithmeticOptimizer_MinimizeBroadcasts": {"b": true}, "T": {"type": "DT_FLOAT"}}}, {"name": "StatefulPartitionedCall/functional_1_1/MobileNetV3Small_1/expanded_conv_9_depthwise_1/depthwise", "op": "DepthwiseConv2dNative", "input": ["StatefulPartitionedCall/functional_1_1/MobileNetV3Small_1/activation_13_1/mul", "StatefulPartitionedCall/functional_1_1/MobileNetV3Small_1/expanded_conv_9_depthwise_1/depthwise/ReadVariableOp"], "attr": {"padding": {"s": "U0FNRQ=="}, "data_format": {"s": "TkhXQw=="}, "T": {"type": "DT_FLOAT"}, "explicit_paddings": {"list": {}}, "dilations": {"list": {"i": ["1", "1", "1", "1"]}}, "strides": {"list": {"i": ["1", "1", "1", "1"]}}}}, {"name": "StatefulPartitionedCall/functional_1_1/MobileNetV3Small_1/expanded_conv_9_depthwise_bn_1/batchnorm/mul_1", "op": "Mul", "input": ["StatefulPartitionedCall/functional_1_1/MobileNetV3Small_1/expanded_conv_9_depthwise_1/depthwise", "StatefulPartitionedCall/functional_1_1/MobileNetV3Small_1/expanded_conv_9_depthwise_bn_1/batchnorm/mul"], "attr": {"T": {"type": "DT_FLOAT"}}}, {"name": "StatefulPartitionedCall/functional_1_1/MobileNetV3Small_1/expanded_conv_9_depthwise_bn_1/batchnorm/add_1", "op": "AddV2", "input": ["StatefulPartitionedCall/functional_1_1/MobileNetV3Small_1/expanded_conv_9_depthwise_bn_1/batchnorm/mul_1", "StatefulPartitionedCall/functional_1_1/MobileNetV3Small_1/expanded_conv_9_depthwise_bn_1/batchnorm/sub"], "attr": {"T": {"type": "DT_FLOAT"}}}, {"name": "StatefulPartitionedCall/functional_1_1/MobileNetV3Small_1/activation_14_1/truediv", "op": "Mul", "input": ["ConstantFolding/StatefulPartitionedCall/functional_1_1/MobileNetV3Small_1/activation_14_1/truediv_recip", "StatefulPartitionedCall/functional_1_1/MobileNetV3Small_1/expanded_conv_9_depthwise_bn_1/batchnorm/add_1"], "attr": {"_grappler_ArithmeticOptimizer_MinimizeBroadcasts": {"b": true}, "T": {"type": "DT_FLOAT"}}}, {"name": "StatefulPartitionedCall/functional_1_1/MobileNetV3Small_1/activation_14_1/add", "op": "AddV2", "input": ["StatefulPartitionedCall/functional_1_1/MobileNetV3Small_1/expanded_conv_9_depthwise_bn_1/batchnorm/add_1", "StatefulPartitionedCall/functional_1_1/MobileNetV3Small_1/activation_14_1/Const"], "attr": {"T": {"type": "DT_FLOAT"}}}, {"name": "StatefulPartitionedCall/functional_1_1/MobileNetV3Small_1/activation_14_1/Relu6", "op": "Relu6", "input": ["StatefulPartitionedCall/functional_1_1/MobileNetV3Small_1/activation_14_1/add"], "attr": {"T": {"type": "DT_FLOAT"}}}, {"name": "StatefulPartitionedCall/functional_1_1/MobileNetV3Small_1/activation_14_1/mul", "op": "Mul", "input": ["StatefulPartitionedCall/functional_1_1/MobileNetV3Small_1/activation_14_1/truediv", "StatefulPartitionedCall/functional_1_1/MobileNetV3Small_1/activation_14_1/Relu6"], "attr": {"_grappler_ArithmeticOptimizer_MinimizeBroadcasts": {"b": true}, "T": {"type": "DT_FLOAT"}}}, {"name": "StatefulPartitionedCall/functional_1_1/MobileNetV3Small_1/expanded_conv_9_squeeze_excite_avg_pool_1/Mean", "op": "Mean", "input": ["StatefulPartitionedCall/functional_1_1/MobileNetV3Small_1/activation_14_1/mul", "StatefulPartitionedCall/functional_1_1/MobileNetV3Small_1/expanded_conv_9_squeeze_excite_avg_pool_1/Mean/reduction_indices"], "attr": {"Tidx": {"type": "DT_INT32"}, "T": {"type": "DT_FLOAT"}, "keep_dims": {"b": true}}}, {"name": "StatefulPartitionedCall/functional_1_1/MobileNetV3Small_1/expanded_conv_9_squeeze_excite_relu_1/Relu", "op": "_FusedConv2D", "input": ["StatefulPartitionedCall/functional_1_1/MobileNetV3Small_1/expanded_conv_9_squeeze_excite_avg_pool_1/Mean", "StatefulPartitionedCall/functional_1_1/MobileNetV3Small_1/expanded_conv_9_squeeze_excite_conv_1/convolution/ReadVariableOp", "StatefulPartitionedCall/functional_1_1/MobileNetV3Small_1/expanded_conv_9_squeeze_excite_conv_1/Squeeze"], "device": "/device:CPU:0", "attr": {"num_host_args": {"i": "0"}, "data_format": {"s": "TkhXQw=="}, "filter_format": {"s": "SFdJTw=="}, "strides": {"list": {"i": ["1", "1", "1", "1"]}}, "num_args": {"i": "1"}, "fused_ops": {"list": {"s": ["Qmlhc0FkZA==", "UmVsdQ=="]}}, "TArgs": {"list": {"type": ["DT_FLOAT"]}}, "padding": {"s": "U0FNRQ=="}, "use_cudnn_on_gpu": {"b": true}, "leakyrelu_alpha": {"f": 0.2}, "epsilon": {"f": 0.0}, "T": {"type": "DT_FLOAT"}, "explicit_paddings": {"list": {}}, "dilations": {"list": {"i": ["1", "1", "1", "1"]}}}}, {"name": "StatefulPartitionedCall/functional_1_1/MobileNetV3Small_1/expanded_conv_9_squeeze_excite_conv_1_2/BiasAdd", "op": "_FusedConv2D", "input": ["StatefulPartitionedCall/functional_1_1/MobileNetV3Small_1/expanded_conv_9_squeeze_excite_relu_1/Relu", "StatefulPartitionedCall/functional_1_1/MobileNetV3Small_1/expanded_conv_9_squeeze_excite_conv_1_2/convolution/ReadVariableOp", "StatefulPartitionedCall/functional_1_1/MobileNetV3Small_1/expanded_conv_9_squeeze_excite_conv_1_2/Squeeze"], "device": "/device:CPU:0", "attr": {"num_host_args": {"i": "0"}, "data_format": {"s": "TkhXQw=="}, "filter_format": {"s": "SFdJTw=="}, "fused_ops": {"list": {"s": ["Qmlhc0FkZA=="]}}, "num_args": {"i": "1"}, "strides": {"list": {"i": ["1", "1", "1", "1"]}}, "TArgs": {"list": {"type": ["DT_FLOAT"]}}, "padding": {"s": "U0FNRQ=="}, "use_cudnn_on_gpu": {"b": true}, "leakyrelu_alpha": {"f": 0.2}, "epsilon": {"f": 0.0}, "T": {"type": "DT_FLOAT"}, "explicit_paddings": {"list": {}}, "dilations": {"list": {"i": ["1", "1", "1", "1"]}}}}, {"name": "StatefulPartitionedCall/functional_1_1/MobileNetV3Small_1/Add_7", "op": "AddV2", "input": ["StatefulPartitionedCall/functional_1_1/MobileNetV3Small_1/expanded_conv_9_squeeze_excite_conv_1_2/BiasAdd", "StatefulPartitionedCall/functional_1_1/MobileNetV3Small_1/Const_14"], "attr": {"T": {"type": "DT_FLOAT"}}}, {"name": "StatefulPartitionedCall/functional_1_1/MobileNetV3Small_1/re_lu_12_1/Relu6", "op": "Relu6", "input": ["StatefulPartitionedCall/functional_1_1/MobileNetV3Small_1/Add_7"], "attr": {"T": {"type": "DT_FLOAT"}}}, {"name": "StatefulPartitionedCall/functional_1_1/MobileNetV3Small_1/Mul_7", "op": "Mul", "input": ["StatefulPartitionedCall/functional_1_1/MobileNetV3Small_1/Const_15", "StatefulPartitionedCall/functional_1_1/MobileNetV3Small_1/re_lu_12_1/Relu6"], "attr": {"_grappler_ArithmeticOptimizer_MinimizeBroadcasts": {"b": true}, "T": {"type": "DT_FLOAT"}}}, {"name": "StatefulPartitionedCall/functional_1_1/MobileNetV3Small_1/expanded_conv_9_squeeze_excite_mul_1/Mul", "op": "Mul", "input": ["StatefulPartitionedCall/functional_1_1/MobileNetV3Small_1/Mul_7", "StatefulPartitionedCall/functional_1_1/MobileNetV3Small_1/activation_14_1/mul"], "attr": {"_grappler_ArithmeticOptimizer_MinimizeBroadcasts": {"b": true}, "T": {"type": "DT_FLOAT"}}}, {"name": "StatefulPartitionedCall/functional_1_1/MobileNetV3Small_1/expanded_conv_9_project_bn_1/batchnorm/mul_1", "op": "Conv2D", "input": ["StatefulPartitionedCall/functional_1_1/MobileNetV3Small_1/expanded_conv_9_squeeze_excite_mul_1/Mul", "StatefulPartitionedCall/functional_1_1/MobileNetV3Small_1/expanded_conv_9_project_1/convolution/merged_input"], "device": "/device:CPU:0", "attr": {"padding": {"s": "U0FNRQ=="}, "data_format": {"s": "TkhXQw=="}, "use_cudnn_on_gpu": {"b": true}, "strides": {"list": {"i": ["1", "1", "1", "1"]}}, "T": {"type": "DT_FLOAT"}, "explicit_paddings": {"list": {}}, "dilations": {"list": {"i": ["1", "1", "1", "1"]}}}}, {"name": "StatefulPartitionedCall/functional_1_1/MobileNetV3Small_1/expanded_conv_9_add_1/ArithmeticOptimizer/AddOpsRewrite_Leaf_1_Add", "op": "AddN", "input": ["StatefulPartitionedCall/functional_1_1/MobileNetV3Small_1/expanded_conv_8_project_bn_1/batchnorm/add_1", "StatefulPartitionedCall/functional_1_1/MobileNetV3Small_1/expanded_conv_9_project_bn_1/batchnorm/mul_1"], "attr": {"N": {"i": "2"}, "T": {"type": "DT_FLOAT"}, "_grappler_ArithmeticOptimizer_AddOpsRewriteStage": {"b": true}}}, {"name": "StatefulPartitionedCall/functional_1_1/MobileNetV3Small_1/expanded_conv_9_add_1/ArithmeticOptimizer/AddOpsRewrite_Add", "op": "AddV2", "input": ["StatefulPartitionedCall/functional_1_1/MobileNetV3Small_1/expanded_conv_9_project_bn_1/batchnorm/sub", "StatefulPartitionedCall/functional_1_1/MobileNetV3Small_1/expanded_conv_9_add_1/ArithmeticOptimizer/AddOpsRewrite_Leaf_1_Add"], "attr": {"T": {"type": "DT_FLOAT"}, "_grappler_ArithmeticOptimizer_AddOpsRewriteStage": {"b": true}}}, {"name": "StatefulPartitionedCall/functional_1_1/MobileNetV3Small_1/expanded_conv_10_expand_bn_1/batchnorm/add_1", "op": "_FusedConv2D", "input": ["StatefulPartitionedCall/functional_1_1/MobileNetV3Small_1/expanded_conv_9_add_1/ArithmeticOptimizer/AddOpsRewrite_Add", "StatefulPartitionedCall/functional_1_1/MobileNetV3Small_1/expanded_conv_10_expand_1/convolution/merged_input", "StatefulPartitionedCall/functional_1_1/MobileNetV3Small_1/expanded_conv_10_expand_bn_1/batchnorm/sub"], "device": "/device:CPU:0", "attr": {"num_host_args": {"i": "0"}, "data_format": {"s": "TkhXQw=="}, "filter_format": {"s": "SFdJTw=="}, "fused_ops": {"list": {"s": ["Qmlhc0FkZA=="]}}, "num_args": {"i": "1"}, "strides": {"list": {"i": ["1", "1", "1", "1"]}}, "TArgs": {"list": {"type": ["DT_FLOAT"]}}, "padding": {"s": "U0FNRQ=="}, "use_cudnn_on_gpu": {"b": true}, "leakyrelu_alpha": {"f": 0.2}, "epsilon": {"f": 0.0}, "T": {"type": "DT_FLOAT"}, "explicit_paddings": {"list": {}}, "dilations": {"list": {"i": ["1", "1", "1", "1"]}}}}, {"name": "StatefulPartitionedCall/functional_1_1/MobileNetV3Small_1/activation_15_1/truediv", "op": "Mul", "input": ["ConstantFolding/StatefulPartitionedCall/functional_1_1/MobileNetV3Small_1/activation_15_1/truediv_recip", "StatefulPartitionedCall/functional_1_1/MobileNetV3Small_1/expanded_conv_10_expand_bn_1/batchnorm/add_1"], "attr": {"_grappler_ArithmeticOptimizer_MinimizeBroadcasts": {"b": true}, "T": {"type": "DT_FLOAT"}}}, {"name": "StatefulPartitionedCall/functional_1_1/MobileNetV3Small_1/activation_15_1/add", "op": "AddV2", "input": ["StatefulPartitionedCall/functional_1_1/MobileNetV3Small_1/expanded_conv_10_expand_bn_1/batchnorm/add_1", "StatefulPartitionedCall/functional_1_1/MobileNetV3Small_1/activation_15_1/Const"], "attr": {"T": {"type": "DT_FLOAT"}}}, {"name": "StatefulPartitionedCall/functional_1_1/MobileNetV3Small_1/activation_15_1/Relu6", "op": "Relu6", "input": ["StatefulPartitionedCall/functional_1_1/MobileNetV3Small_1/activation_15_1/add"], "attr": {"T": {"type": "DT_FLOAT"}}}, {"name": "StatefulPartitionedCall/functional_1_1/MobileNetV3Small_1/activation_15_1/mul", "op": "Mul", "input": ["StatefulPartitionedCall/functional_1_1/MobileNetV3Small_1/activation_15_1/truediv", "StatefulPartitionedCall/functional_1_1/MobileNetV3Small_1/activation_15_1/Relu6"], "attr": {"_grappler_ArithmeticOptimizer_MinimizeBroadcasts": {"b": true}, "T": {"type": "DT_FLOAT"}}}, {"name": "StatefulPartitionedCall/functional_1_1/MobileNetV3Small_1/expanded_conv_10_depthwise_1/depthwise", "op": "DepthwiseConv2dNative", "input": ["StatefulPartitionedCall/functional_1_1/MobileNetV3Small_1/activation_15_1/mul", "StatefulPartitionedCall/functional_1_1/MobileNetV3Small_1/expanded_conv_10_depthwise_1/depthwise/ReadVariableOp"], "attr": {"padding": {"s": "U0FNRQ=="}, "data_format": {"s": "TkhXQw=="}, "T": {"type": "DT_FLOAT"}, "explicit_paddings": {"list": {}}, "dilations": {"list": {"i": ["1", "1", "1", "1"]}}, "strides": {"list": {"i": ["1", "1", "1", "1"]}}}}, {"name": "StatefulPartitionedCall/functional_1_1/MobileNetV3Small_1/expanded_conv_10_depthwise_bn_1/batchnorm/mul_1", "op": "Mul", "input": ["StatefulPartitionedCall/functional_1_1/MobileNetV3Small_1/expanded_conv_10_depthwise_1/depthwise", "StatefulPartitionedCall/functional_1_1/MobileNetV3Small_1/expanded_conv_10_depthwise_bn_1/batchnorm/mul"], "attr": {"T": {"type": "DT_FLOAT"}}}, {"name": "StatefulPartitionedCall/functional_1_1/MobileNetV3Small_1/expanded_conv_10_depthwise_bn_1/batchnorm/add_1", "op": "AddV2", "input": ["StatefulPartitionedCall/functional_1_1/MobileNetV3Small_1/expanded_conv_10_depthwise_bn_1/batchnorm/mul_1", "StatefulPartitionedCall/functional_1_1/MobileNetV3Small_1/expanded_conv_10_depthwise_bn_1/batchnorm/sub"], "attr": {"T": {"type": "DT_FLOAT"}}}, {"name": "StatefulPartitionedCall/functional_1_1/MobileNetV3Small_1/activation_16_1/truediv", "op": "Mul", "input": ["ConstantFolding/StatefulPartitionedCall/functional_1_1/MobileNetV3Small_1/activation_16_1/truediv_recip", "StatefulPartitionedCall/functional_1_1/MobileNetV3Small_1/expanded_conv_10_depthwise_bn_1/batchnorm/add_1"], "attr": {"_grappler_ArithmeticOptimizer_MinimizeBroadcasts": {"b": true}, "T": {"type": "DT_FLOAT"}}}, {"name": "StatefulPartitionedCall/functional_1_1/MobileNetV3Small_1/activation_16_1/add", "op": "AddV2", "input": ["StatefulPartitionedCall/functional_1_1/MobileNetV3Small_1/expanded_conv_10_depthwise_bn_1/batchnorm/add_1", "StatefulPartitionedCall/functional_1_1/MobileNetV3Small_1/activation_16_1/Const"], "attr": {"T": {"type": "DT_FLOAT"}}}, {"name": "StatefulPartitionedCall/functional_1_1/MobileNetV3Small_1/activation_16_1/Relu6", "op": "Relu6", "input": ["StatefulPartitionedCall/functional_1_1/MobileNetV3Small_1/activation_16_1/add"], "attr": {"T": {"type": "DT_FLOAT"}}}, {"name": "StatefulPartitionedCall/functional_1_1/MobileNetV3Small_1/activation_16_1/mul", "op": "Mul", "input": ["StatefulPartitionedCall/functional_1_1/MobileNetV3Small_1/activation_16_1/truediv", "StatefulPartitionedCall/functional_1_1/MobileNetV3Small_1/activation_16_1/Relu6"], "attr": {"_grappler_ArithmeticOptimizer_MinimizeBroadcasts": {"b": true}, "T": {"type": "DT_FLOAT"}}}, {"name": "StatefulPartitionedCall/functional_1_1/MobileNetV3Small_1/expanded_conv_10_squeeze_excite_avg_pool_1/Mean", "op": "Mean", "input": ["StatefulPartitionedCall/functional_1_1/MobileNetV3Small_1/activation_16_1/mul", "StatefulPartitionedCall/functional_1_1/MobileNetV3Small_1/expanded_conv_10_squeeze_excite_avg_pool_1/Mean/reduction_indices"], "attr": {"T": {"type": "DT_FLOAT"}, "Tidx": {"type": "DT_INT32"}, "keep_dims": {"b": true}}}, {"name": "StatefulPartitionedCall/functional_1_1/MobileNetV3Small_1/expanded_conv_10_squeeze_excite_relu_1/Relu", "op": "_FusedConv2D", "input": ["StatefulPartitionedCall/functional_1_1/MobileNetV3Small_1/expanded_conv_10_squeeze_excite_avg_pool_1/Mean", "StatefulPartitionedCall/functional_1_1/MobileNetV3Small_1/expanded_conv_10_squeeze_excite_conv_1/convolution/ReadVariableOp", "StatefulPartitionedCall/functional_1_1/MobileNetV3Small_1/expanded_conv_10_squeeze_excite_conv_1/Squeeze"], "device": "/device:CPU:0", "attr": {"num_host_args": {"i": "0"}, "data_format": {"s": "TkhXQw=="}, "filter_format": {"s": "SFdJTw=="}, "strides": {"list": {"i": ["1", "1", "1", "1"]}}, "num_args": {"i": "1"}, "fused_ops": {"list": {"s": ["Qmlhc0FkZA==", "UmVsdQ=="]}}, "TArgs": {"list": {"type": ["DT_FLOAT"]}}, "padding": {"s": "U0FNRQ=="}, "use_cudnn_on_gpu": {"b": true}, "leakyrelu_alpha": {"f": 0.2}, "epsilon": {"f": 0.0}, "T": {"type": "DT_FLOAT"}, "explicit_paddings": {"list": {}}, "dilations": {"list": {"i": ["1", "1", "1", "1"]}}}}, {"name": "StatefulPartitionedCall/functional_1_1/MobileNetV3Small_1/expanded_conv_10_squeeze_excite_conv_1_2/BiasAdd", "op": "_FusedConv2D", "input": ["StatefulPartitionedCall/functional_1_1/MobileNetV3Small_1/expanded_conv_10_squeeze_excite_relu_1/Relu", "StatefulPartitionedCall/functional_1_1/MobileNetV3Small_1/expanded_conv_10_squeeze_excite_conv_1_2/convolution/ReadVariableOp", "StatefulPartitionedCall/functional_1_1/MobileNetV3Small_1/expanded_conv_10_squeeze_excite_conv_1_2/Squeeze"], "device": "/device:CPU:0", "attr": {"num_host_args": {"i": "0"}, "data_format": {"s": "TkhXQw=="}, "filter_format": {"s": "SFdJTw=="}, "strides": {"list": {"i": ["1", "1", "1", "1"]}}, "num_args": {"i": "1"}, "fused_ops": {"list": {"s": ["Qmlhc0FkZA=="]}}, "TArgs": {"list": {"type": ["DT_FLOAT"]}}, "padding": {"s": "U0FNRQ=="}, "use_cudnn_on_gpu": {"b": true}, "leakyrelu_alpha": {"f": 0.2}, "epsilon": {"f": 0.0}, "T": {"type": "DT_FLOAT"}, "explicit_paddings": {"list": {}}, "dilations": {"list": {"i": ["1", "1", "1", "1"]}}}}, {"name": "StatefulPartitionedCall/functional_1_1/MobileNetV3Small_1/Add_8", "op": "AddV2", "input": ["StatefulPartitionedCall/functional_1_1/MobileNetV3Small_1/expanded_conv_10_squeeze_excite_conv_1_2/BiasAdd", "StatefulPartitionedCall/functional_1_1/MobileNetV3Small_1/Const_16"], "attr": {"T": {"type": "DT_FLOAT"}}}, {"name": "StatefulPartitionedCall/functional_1_1/MobileNetV3Small_1/re_lu_13_1/Relu6", "op": "Relu6", "input": ["StatefulPartitionedCall/functional_1_1/MobileNetV3Small_1/Add_8"], "attr": {"T": {"type": "DT_FLOAT"}}}, {"name": "StatefulPartitionedCall/functional_1_1/MobileNetV3Small_1/Mul_8", "op": "Mul", "input": ["StatefulPartitionedCall/functional_1_1/MobileNetV3Small_1/Const_17", "StatefulPartitionedCall/functional_1_1/MobileNetV3Small_1/re_lu_13_1/Relu6"], "attr": {"_grappler_ArithmeticOptimizer_Minimize…
": {"b": false}, "transpose_b": {"b": false}, "fused_ops": {"list": {"s": ["Qmlhc0FkZA=="]}}, "num_args": {"i": "1"}, "leakyrelu_alpha": {"f": 0.2}, "epsilon": {"f": 0.0}, "T": {"type": "DT_FLOAT"}}}, {"name": "StatefulPartitionedCall/functional_1_1/dense_1_2/Softmax", "op": "Softmax", "input": ["StatefulPartitionedCall/functional_1_1/dense_1_2/BiasAdd"], "attr": {"T": {"type": "DT_FLOAT"}}}, {"name": "Identity", "op": "Identity", "input": ["StatefulPartitionedCall/functional_1_1/dense_1_2/Softmax"], "attr": {"T": {"type": "DT_FLOAT"}}}], "library": {}, "versions": {"producer": 1645}}, "weightsManifest": [{"paths": ["group1-shard1of1.bin"], "weights": [{"name": "ConstantFolding/StatefulPartitionedCall/functional_1_1/MobileNetV3Small_1/activation_17_1/truediv_recip", "shape": [], "dtype": "float32", "quantization": {"dtype": "uint16", "min": 0.1666666716337204, "scale": 1.0, "original_dtype": "float32"}}, {"name": "StatefulPartitionedCall/functional_1_1/MobileNetV3Small_1/expanded_conv_10_project_bn_1/batchnorm/sub", "shape": [96], "dtype": "float32", "quantization": {"dtype": "uint16", "min": -21.336155592415693, "scale": 0.0005281488091592577, "original_dtype": "float32"}}, {"name": "StatefulPartitionedCall/functional_1_1/MobileNetV3Small_1/Const_17", "shape": [], "dtype": "float32", "quantization": {"dtype": "uint16", "min": 0.1666666716337204, "scale": 1.0, "original_dtype": "float32"}}, {"name": "StatefulPartitionedCall/functional_1_1/MobileNetV3Small_1/expanded_conv_10_squeeze_excite_avg_pool_1/Mean/reduction_indices", "shape": [2], "dtype": "int32"}, {"name": "StatefulPartitionedCall/functional_1_1/MobileNetV3Small_1/expanded_conv_10_squeeze_excite_conv_1/convolution/ReadVariableOp", "shape": [1, 1, 576, 144], "dtype": "float32", "quantization": {"dtype": "uint16", "min": -0.6544050181022069, "scale": 2.6353294865585006e-05, "original_dtype": "float32"}}, {"name": "StatefulPartitionedCall/functional_1_1/MobileNetV3Small_1/expanded_conv_10_squeeze_excite_conv_1/Squeeze", "shape": [144], "dtype": "float32", "quantization": {"dtype": "uint16", "min": -2.2070867281315882, "scale": 7.901359424807891e-05, "original_dtype": "float32"}}, {"name": "StatefulPartitionedCall/functional_1_1/MobileNetV3Small_1/expanded_conv_10_squeeze_excite_conv_1_2/convolution/ReadVariableOp", "shape": [1, 1, 144, 576], "dtype": "float32", "quantization": {"dtype": "uint16", "min": -0.7946587894277004, "scale": 3.3926430834124595e-05, "original_dtype": "float32"}}, {"name": "StatefulPartitionedCall/functional_1_1/MobileNetV3Small_1/expanded_conv_10_squeeze_excite_conv_1_2/Squeeze", "shape": [576], "dtype": "float32", "quantization": {"dtype": "uint16", "min": -3.552210216728857, "scale": 0.00012809989962960178, "original_dtype": "float32"}}, {"name": "StatefulPartitionedCall/functional_1_1/MobileNetV3Small_1/Const_16", "shape": [], "dtype": "float32", "quantization": {"dtype": "uint16", "min": 3.0, "scale": 1.0, "original_dtype": "float32"}}, {"name": "ConstantFolding/StatefulPartitionedCall/functional_1_1/MobileNetV3Small_1/activation_16_1/truediv_recip", "shape": [], "dtype": "float32", "quantization": {"dtype": "uint16", "min": 0.1666666716337204, "scale": 1.0, "original_dtype": "float32"}}, {"name": "ConstantFolding/StatefulPartitionedCall/functional_1_1/MobileNetV3Small_1/activation_15_1/truediv_recip", "shape": [], "dtype": "float32", "quantization": {"dtype": "uint16", "min": 0.1666666716337204, "scale": 1.0, "original_dtype": "float32"}}, {"name": "StatefulPartitionedCall/functional_1_1/MobileNetV3Small_1/expanded_conv_9_project_bn_1/batchnorm/sub", "shape": [96], "dtype": "float32", "quantization": {"dtype": "uint16", "min": -6.156477326270672, "scale": 0.0002109393999270428, "original_dtype": "float32"}}, {"name": "StatefulPartitionedCall/functional_1_1/MobileNetV3Small_1/Const_15", "shape": [], "dtype": "float32", "quantization": {"dtype": "uint16", "min": 0.1666666716337204, "scale": 1.0, "original_dtype": "float32"}}, {"name": "StatefulPartitionedCall/functional_1_1/MobileNetV3Small_1/expanded_conv_9_squeeze_excite_avg_pool_1/Mean/reduction_indices", "shape": [2], "dtype": "int32"}, {"name": "StatefulPartitionedCall/functional_1_1/MobileNetV3Small_1/expanded_conv_9_squeeze_excite_conv_1/convolution/ReadVariableOp", "shape": [1, 1, 576, 144], "dtype": "float32", "quantization": {"dtype": "uint16", "min": -0.7574142875374523, "scale": 2.598512033544162e-05, "original_dtype": "float32"}}, {"name": "StatefulPartitionedCall/functional_1_1/MobileNetV3Small_1/expanded_conv_9_squeeze_excite_conv_1/Squeeze", "shape": [144], "dtype": "float32", "quantization": {"dtype": "uint16", "min": -1.3299311510328935, "scale": 3.897805249217156e-05, "original_dtype": "float32"}}, {"name": "StatefulPartitionedCall/functional_1_1/MobileNetV3Small_1/expanded_conv_9_squeeze_excite_conv_1_2/convolution/ReadVariableOp", "shape": [1, 1, 144, 576], "dtype": "float32", "quantization": {"dtype": "uint16", "min": -0.8657075017342772, "scale": 3.722512477357573e-05, "original_dtype": "float32"}}, {"name": "StatefulPartitionedCall/functional_1_1/MobileNetV3Small_1/expanded_conv_9_squeeze_excite_conv_1_2/Squeeze", "shape": [576], "dtype": "float32", "quantization": {"dtype": "uint16", "min": -3.0784178830961197, "scale": 9.126917142803284e-05, "original_dtype": "float32"}}, {"name": "StatefulPartitionedCall/functional_1_1/MobileNetV3Small_1/Const_14", "shape": [], "dtype": "float32", "quantization": {"dtype": "uint16", "min": 3.0, "scale": 1.0, "original_dtype": "float32"}}, {"name": "ConstantFolding/StatefulPartitionedCall/functional_1_1/MobileNetV3Small_1/activation_14_1/truediv_recip", "shape": [], "dtype": "float32", "quantization": {"dtype": "uint16", "min": 0.1666666716337204, "scale": 1.0, "original_dtype": "float32"}}, {"name": "ConstantFolding/StatefulPartitionedCall/functional_1_1/MobileNetV3Small_1/activation_13_1/truediv_recip", "shape": [], "dtype": "float32", "quantization": {"dtype": "uint16", "min": 0.1666666716337204, "scale": 1.0, "original_dtype": "float32"}}, {"name": "StatefulPartitionedCall/functional_1_1/MobileNetV3Small_1/Const_13", "shape": [], "dtype": "float32", "quantization": {"dtype": "uint16", "min": 0.1666666716337204, "scale": 1.0, "original_dtype": "float32"}}, {"name": "StatefulPartitionedCall/functional_1_1/MobileNetV3Small_1/expanded_conv_8_squeeze_excite_avg_pool_1/Mean/reduction_indices", "shape": [2], "dtype": "int32"}, {"name": "StatefulPartitionedCall/functional_1_1/MobileNetV3Small_1/expanded_conv_8_squeeze_excite_conv_1/convolution/ReadVariableOp", "shape": [1, 1, 288, 72], "dtype": "float32", "quantization": {"dtype": "uint16", "min": -0.9046854662369507, "scale": 3.051421567178058e-05, "original_dtype": "float32"}}, {"name": "StatefulPartitionedCall/functional_1_1/MobileNetV3Small_1/expanded_conv_8_squeeze_excite_conv_1/Squeeze", "shape": [72], "dtype": "float32", "quantization": {"dtype": "uint16", "min": -3.159744400795095, "scale": 8.498505650336458e-05, "original_dtype": "float32"}}, {"name": "StatefulPartitionedCall/functional_1_1/MobileNetV3Small_1/expanded_conv_8_squeeze_excite_conv_1_2/convolution/ReadVariableOp", "shape": [1, 1, 72, 288], "dtype": "float32", "quantization": {"dtype": "uint16", "min": -0.9378390347802085, "scale": 2.3278949407506354e-05, "original_dtype": "float32"}}, {"name": "StatefulPartitionedCall/functional_1_1/MobileNetV3Small_1/expanded_conv_8_squeeze_excite_conv_1_2/Squeeze", "shape": [288], "dtype": "float32", "quantization": {"dtype": "uint16", "min": -1.2806792210557598, "scale": 7.424657783383152e-05, "original_dtype": "float32"}}, {"name": "StatefulPartitionedCall/functional_1_1/MobileNetV3Small_1/Const_12", "shape": [], "dtype": "float32", "quantization": {"dtype": "uint16", "min": 3.0, "scale": 1.0, "original_dtype": "float32"}}, {"name": "ConstantFolding/StatefulPartitionedCall/functional_1_1/MobileNetV3Small_1/activation_12_1/truediv_recip", "shape": [], "dtype": "float32", "quantization": {"dtype": "uint16", "min": 0.1666666716337204, "scale": 1.0, "original_dtype": "float32"}}, {"name": "ConstantFolding/StatefulPartitionedCall/functional_1_1/MobileNetV3Small_1/activation_11_1/truediv_recip", "shape": [], "dtype": "float32", "quantization": {"dtype": "uint16", "min": 0.1666666716337204, "scale": 1.0, "original_dtype": "float32"}}, {"name": "StatefulPartitionedCall/functional_1_1/MobileNetV3Small_1/expanded_conv_7_project_bn_1/batchnorm/sub", "shape": [48], "dtype": "float32", "quantization": {"dtype": "uint16", "min": -6.059756627064271, "scale": 0.00018028551193217514, "original_dtype": "float32"}}, {"name": "StatefulPartitionedCall/functional_1_1/MobileNetV3Small_1/Const_11", "shape": [], "dtype": "float32", "quantization": {"dtype": "uint16", "min": 0.1666666716337204, "scale": 1.0, "original_dtype": "float32"}}, {"name": "StatefulPartitionedCall/functional_1_1/MobileNetV3Small_1/expanded_conv_7_squeeze_excite_avg_pool_1/Mean/reduction_indices", "shape": [2], "dtype": "int32"}, {"name": "StatefulPartitionedCall/functional_1_1/MobileNetV3Small_1/expanded_conv_7_squeeze_excite_conv_1/convolution/ReadVariableOp", "shape": [1, 1, 144, 40], "dtype": "float32", "quantization": {"dtype": "uint16", "min": -0.9395693548394893, "scale": 2.7166961250238235e-05, "original_dtype": "float32"}}, {"name": "StatefulPartitionedCall/functional_1_1/MobileNetV3Small_1/expanded_conv_7_squeeze_excite_conv_1/Squeeze", "shape": [40], "dtype": "float32", "quantization": {"dtype": "uint16", "min": -0.1882677083840548, "scale": 2.0988596252402987e-05, "original_dtype": "float32"}}, {"name": "StatefulPartitionedCall/functional_1_1/MobileNetV3Small_1/expanded_conv_7_squeeze_excite_conv_1_2/convolution/ReadVariableOp", "shape": [1, 1, 40, 144], "dtype": "float32", "quantization": {"dtype": "uint16", "min": -0.6165467060166164, "scale": 1.9556148888781567e-05, "original_dtype": "float32"}}, {"name": "StatefulPartitionedCall/functional_1_1/MobileNetV3Small_1/expanded_conv_7_squeeze_excite_conv_1_2/Squeeze", "shape": [144], "dtype": "float32", "quantization": {"dtype": "uint16", "min": -3.057516543656199, "scale": 8.892524048675796e-05, "original_dtype": "float32"}}, {"name": "StatefulPartitionedCall/functional_1_1/MobileNetV3Small_1/Const_10", "shape": [], "dtype": "float32", "quantization": {"dtype": "uint16", "min": 3.0, "scale": 1.0, "original_dtype": "float32"}}, {"name": "ConstantFolding/StatefulPartitionedCall/functional_1_1/MobileNetV3Small_1/activation_10_1/truediv_recip", "shape": [], "dtype": "float32", "quantization": {"dtype": "uint16", "min": 0.1666666716337204, "scale": 1.0, "original_dtype": "float32"}}, {"name": "ConstantFolding/StatefulPartitionedCall/functional_1_1/MobileNetV3Small_1/activation_9_1/truediv_recip", "shape": [], "dtype": "float32", "quantization": {"dtype": "uint16", "min": 0.1666666716337204, "scale": 1.0, "original_dtype": "float32"}}, {"name": "StatefulPartitionedCall/functional_1_1/MobileNetV3Small_1/Const_9", "shape": [], "dtype": "float32", "quantization": {"dtype": "uint16", "min": 0.1666666716337204, "scale": 1.0, "original_dtype": "float32"}}, {"name": "StatefulPartitionedCall/functional_1_1/MobileNetV3Small_1/expanded_conv_6_squeeze_excite_avg_pool_1/Mean/reduction_indices", "shape": [2], "dtype": "int32"}, {"name": "StatefulPartitionedCall/functional_1_1/MobileNetV3Small_1/expanded_conv_6_squeeze_excite_conv_1/convolution/ReadVariableOp", "shape": [1, 1, 120, 32], "dtype": "float32", "quantization": {"dtype": "uint16", "min": -0.00891020906913039, "scale": 1.589519243101611e-07, "original_dtype": "float32"}}, {"name": "StatefulPartitionedCall/functional_1_1/MobileNetV3Small_1/expanded_conv_6_squeeze_excite_conv_1/Squeeze", "shape": [32], "dtype": "float32", "quantization": {"dtype": "uint16", "min": -0.5464356451865109, "scale": 2.159397926048255e-05, "original_dtype": "float32"}}, {"name": "StatefulPartitionedCall/functional_1_1/MobileNetV3Small_1/expanded_conv_6_squeeze_excite_conv_1_2/convolution/ReadVariableOp", "shape": [1, 1, 32, 120], "dtype": "float32", "quantization": {"dtype": "uint16", "min": -0.005973038192250945, "scale": 1.6225350262817333e-07, "original_dtype": "float32"}}, {"name": "StatefulPartitionedCall/functional_1_1/MobileNetV3Small_1/expanded_conv_6_squeeze_excite_conv_1_2/Squeeze", "shape": [120], "dtype": "float32", "quantization": {"dtype": "uint16", "min": -1.9656266605443846, "scale": 7.635280688876571e-05, "original_dtype": "float32"}}, {"name": "StatefulPartitionedCall/functional_1_1/MobileNetV3Small_1/Const_8", "shape": [], "dtype": "float32", "quantization": {"dtype": "uint16", "min": 3.0, "scale": 1.0, "original_dtype": "float32"}}, {"name": "ConstantFolding/StatefulPartitionedCall/functional_1_1/MobileNetV3Small_1/activation_8_1/truediv_recip", "shape": [], "dtype": "float32", "quantization": {"dtype": "uint16", "min": 0.1666666716337204, "scale": 1.0, "original_dtype": "float32"}}, {"name": "ConstantFolding/StatefulPartitionedCall/functional_1_1/MobileNetV3Small_1/activation_7_1/truediv_recip", "shape": [], "dtype": "float32", "quantization": {"dtype": "uint16", "min": 0.1666666716337204, "scale": 1.0, "original_dtype": "float32"}}, {"name": "StatefulPartitionedCall/functional_1_1/MobileNetV3Small_1/expanded_conv_5_project_bn_1/batchnorm/sub", "shape": [40], "dtype": "float32", "quantization": {"dtype": "uint16", "min": -36.35579571740309, "scale": 0.000887397684039227, "original_dtype": "float32"}}, {"name": "StatefulPartitionedCall/functional_1_1/MobileNetV3Small_1/Const_7", "shape": [], "dtype": "float32", "quantization": {"dtype": "uint16", "min": 0.1666666716337204, "scale": 1.0, "original_dtype": "float32"}}, {"name": "StatefulPartitionedCall/functional_1_1/MobileNetV3Small_1/expanded_conv_5_squeeze_excite_avg_pool_1/Mean/reduction_indices", "shape": [2], "dtype": "int32"}, {"name": "StatefulPartitionedCall/functional_1_1/MobileNetV3Small_1/expanded_conv_5_squeeze_excite_conv_1/convolution/ReadVariableOp", "shape": [1, 1, 240, 64], "dtype": "float32", "quantization": {"dtype": "uint16", "min": -1.445397970893249, "scale": 3.335713394321038e-05, "original_dtype": "float32"}}, {"name": "StatefulPartitionedCall/functional_1_1/MobileNetV3Small_1/expanded_conv_5_squeeze_excite_conv_1/Squeeze", "shape": [64], "dtype": "float32", "quantization": {"dtype": "uint16", "min": -0.7616312475292508, "scale": 2.611725010387665e-05, "original_dtype": "float32"}}, {"name": "StatefulPartitionedCall/functional_1_1/MobileNetV3Small_1/expanded_conv_5_squeeze_excite_conv_1_2/convolution/ReadVariableOp", "shape": [1, 1, 64, 240], "dtype": "float32", "quantization": {"dtype": "uint16", "min": -0.739089871200497, "scale": 2.684280784486442e-05, "original_dtype": "float32"}}, {"name": "StatefulPartitionedCall/functional_1_1/MobileNetV3Small_1/expanded_conv_5_squeeze_excite_conv_1_2/Squeeze", "shape": [240], "dtype": "float32", "quantization": {"dtype": "uint16", "min": -3.935324040974106, "scale": 0.00010254648845565212, "original_dtype": "float32"}}, {"name": "StatefulPartitionedCall/functional_1_1/MobileNetV3Small_1/Const_6", "shape": [], "dtype": "float32", "quantization": {"dtype": "uint16", "min": 3.0, "scale": 1.0, "original_dtype": "float32"}}, {"name": "ConstantFolding/StatefulPartitionedCall/functional_1_1/MobileNetV3Small_1/activation_6_1/truediv_recip", "shape": [], "dtype": "float32", "quantization": {"dtype": "uint16", "min": 0.1666666716337204, "scale": 1.0, "original_dtype": "float32"}}, {"name": "ConstantFolding/StatefulPartitionedCall/functional_1_1/MobileNetV3Small_1/activation_5_1/truediv_recip", "shape": [], "dtype": "float32", "quantization": {"dtype": "uint16", "min": 0.1666666716337204, "scale": 1.0, "original_dtype": "float32"}}, {"name": "StatefulPartitionedCall/functional_1_1/MobileNetV3Small_1/expanded_conv_4_project_bn_1/batchnorm/sub", "shape": [40], "dtype": "float32", "quantization": {"dtype": "uint16", "min": -12.000448268431406, "scale": 0.0002916765493141338, "original_dtype": "float32"}}, {"name": "StatefulPartitionedCall/functional_1_1/MobileNetV3Small_1/Const_5", "shape": [], "dtype": "float32", "quantization": {"dtype": "uint16", "min": 0.1666666716337204, "scale": 1.0, "original_dtype": "float32"}}, {"name": "StatefulPartitionedCall/functional_1_1/MobileNetV3Small_1/expanded_conv_4_squeeze_excite_avg_pool_1/Mean/reduction_indices", "shape": [2], "dtype": "int32"}, {"name": "StatefulPartitionedCall/functional_1_1/MobileNetV3Small_1/expanded_conv_4_squeeze_excite_conv_1/convolution/ReadVariableOp", "shape": [1, 1, 240, 64], "dtype": "float32", "quantization": {"dtype": "uint16", "min": -1.5484753522336678, "scale": 4.0749351374570206e-05, "original_dtype": "float32"}}, {"name": "StatefulPartitionedCall/functional_1_1/MobileNetV3Small_1/expanded_conv_4_squeeze_excite_conv_1/Squeeze", "shape": [64], "dtype": "float32", "quantization": {"dtype": "uint16", "min": -1.5823815581508784, "scale": 4.5458977797433954e-05, "original_dtype": "float32"}}, {"name": "StatefulPartitionedCall/functional_1_1/MobileNetV3Small_1/expanded_conv_4_squeeze_excite_conv_1_2/convolution/ReadVariableOp", "shape": [1, 1, 64, 240], "dtype": "float32", "quantization": {"dtype": "uint16", "min": -0.6938125518527576, "scale": 2.6193466922861583e-05, "original_dtype": "float32"}}, {"name": "StatefulPartitionedCall/functional_1_1/MobileNetV3Small_1/expanded_conv_4_squeeze_excite_conv_1_2/Squeeze", "shape": [240], "dtype": "float32", "quantization": {"dtype": "uint16", "min": -3.2407021349533442, "scale": 0.00010053364774168898, "original_dtype": "float32"}}, {"name": "StatefulPartitionedCall/functional_1_1/MobileNetV3Small_1/Const_4", "shape": [], "dtype": "float32", "quantization": {"dtype": "uint16", "min": 3.0, "scale": 1.0, "original_dtype": "float32"}}, {"name": "ConstantFolding/StatefulPartitionedCall/functional_1_1/MobileNetV3Small_1/activation_4_1/truediv_recip", "shape": [], "dtype": "float32", "quantization": {"dtype": "uint16", "min": 0.1666666716337204, "scale": 1.0, "original_dtype": "float32"}}, {"name": "ConstantFolding/StatefulPartitionedCall/functional_1_1/MobileNetV3Small_1/activation_3_1/truediv_recip", "shape": [], "dtype": "float32", "quantization": {"dtype": "uint16", "min": 0.1666666716337204, "scale": 1.0, "original_dtype": "float32"}}, {"name": "StatefulPartitionedCall/functional_1_1/MobileNetV3Small_1/Const_3", "shape": [], "dtype": "float32", "quantization": {"dtype": "uint16", "min": 0.1666666716337204, "scale": 1.0, "original_dtype": "float32"}}, {"name": "StatefulPartitionedCall/functional_1_1/MobileNetV3Small_1/expanded_conv_3_squeeze_excite_avg_pool_1/Mean/reduction_indices", "shape": [2], "dtype": "int32"}, {"name": "StatefulPartitionedCall/functional_1_1/MobileNetV3Small_1/expanded_conv_3_squeeze_excite_conv_1/convolution/ReadVariableOp", "shape": [1, 1, 96, 24], "dtype": "float32", "quantization": {"dtype": "uint16", "min": -0.7194254424521603, "scale": 3.00725428437972e-05, "original_dtype": "float32"}}, {"name": "StatefulPartitionedCall/functional_1_1/MobileNetV3Small_1/expanded_conv_3_squeeze_excite_conv_1/Squeeze", "shape": [24], "dtype": "float32", "quantization": {"dtype": "uint16", "min": -0.48050366511304526, "scale": 2.8420397770925965e-05, "original_dtype": "float32"}}, {"name": "StatefulPartitionedCall/functional_1_1/MobileNetV3Small_1/expanded_conv_3_squeeze_excite_conv_1_2/convolution/ReadVariableOp", "shape": [1, 1, 24, 96], "dtype": "float32", "quantization": {"dtype": "uint16", "min": -0.5249728236253359, "scale": 1.894798323920219e-05, "original_dtype": "float32"}}, {"name": "StatefulPartitionedCall/functional_1_1/MobileNetV3Small_1/expanded_conv_3_squeeze_excite_conv_1_2/Squeeze", "shape": [96], "dtype": "float32", "quantization": {"dtype": "uint16", "min": -4.982356499828881, "scale": 0.00012214352430263737, "original_dtype": "float32"}}, {"name": "StatefulPartitionedCall/functional_1_1/MobileNetV3Small_1/Const_2", "shape": [], "dtype": "float32", "quantization": {"dtype": "uint16", "min": 3.0, "scale": 1.0, "original_dtype": "float32"}}, {"name": "ConstantFolding/StatefulPartitionedCall/functional_1_1/MobileNetV3Small_1/activation_2_1/truediv_recip", "shape": [], "dtype": "float32", "quantization": {"dtype": "uint16", "min": 0.1666666716337204, "scale": 1.0, "original_dtype": "float32"}}, {"name": "ConstantFolding/StatefulPartitionedCall/functional_1_1/MobileNetV3Small_1/activation_1_2/truediv_recip", "shape": [], "dtype": "float32", "quantization": {"dtype": "uint16", "min": 0.1666666716337204, "scale": 1.0, "original_dtype": "float32"}}, {"name": "StatefulPartitionedCall/functional_1_1/MobileNetV3Small_1/expanded_conv_2_project_bn_1/batchnorm/sub", "shape": [24], "dtype": "float32", "quantization": {"dtype": "uint16", "min": -34.52776866338615, "scale": 0.0009578010114950802, "original_dtype": "float32"}}, {"name": "StatefulPartitionedCall/functional_1_1/MobileNetV3Small_1/Const_1", "shape": [], "dtype": "float32", "quantization": {"dtype": "uint16", "min": 0.1666666716337204, "scale": 1.0, "original_dtype": "float32"}}, {"name": "StatefulPartitionedCall/functional_1_1/MobileNetV3Small_1/expanded_conv_squeeze_excite_avg_pool_1/Mean/reduction_indices", "shape": [2], "dtype": "int32"}, {"name": "StatefulPartitionedCall/functional_1_1/MobileNetV3Small_1/expanded_conv_squeeze_excite_conv_1/convolution/ReadVariableOp", "shape": [1, 1, 16, 8], "dtype": "float32", "quantization": {"dtype": "uint16", "min": -0.044838710041607124, "scale": 2.127679132656692e-06, "original_dtype": "float32"}}, {"name": "StatefulPartitionedCall/functional_1_1/MobileNetV3Small_1/expanded_conv_squeeze_excite_conv_1/Squeeze", "shape": [8], "dtype": "float32", "quantization": {"dtype": "uint16", "min": -2.2445616387626055, "scale": 7.941977350373667e-05, "original_dtype": "float32"}}, {"name": "StatefulPartitionedCall/functional_1_1/MobileNetV3Small_1/expanded_conv_squeeze_excite_conv_1_2/convolution/ReadVariableOp", "shape": [1, 1, 8, 16], "dtype": "float32", "quantization": {"dtype": "uint16", "min": -0.0, "scale": 2.315973557041269e-06, "original_dtype": "float32"}}, {"name": "StatefulPartitionedCall/functional_1_1/MobileNetV3Small_1/expanded_conv_squeeze_excite_conv_1_2/Squeeze", "shape": [16], "dtype": "float32", "quantization": {"dtype": "uint16", "min": -0.7837212928692809, "scale": 4.4958770816273574e-05, "original_dtype": "float32"}}, {"name": "StatefulPartitionedCall/functional_1_1/MobileNetV3Small_1/Const", "shape": [], "dtype": "float32", "quantization": {"dtype": "uint16", "min": 3.0, "scale": 1.0, "original_dtype": "float32"}}, {"name": "ConstantFolding/StatefulPartitionedCall/functional_1_1/MobileNetV3Small_1/activation_1/truediv_recip", "shape": [], "dtype": "float32", "quantization": {"dtype": "uint16", "min": 0.1666666716337204, "scale": 1.0, "original_dtype": "float32"}}, {"name": "StatefulPartitionedCall/functional_1_1/rescaling_1_1/Cast/x", "shape": [], "dtype": "float32", "quantization": {"dtype": "uint16", "min": 0.007843137718737125, "scale": 1.0, "original_dtype": "float32"}}, {"name": "StatefulPartitionedCall/functional_1_1/rescaling_1_1/Cast_1", "shape": [], "dtype": "float32", "quantization": {"dtype": "uint16", "min": -1.0, "scale": 1.0, "original_dtype": "float32"}}, {"name": "StatefulPartitionedCall/functional_1_1/MobileNetV3Small_1/rescaling_1/Cast/x", "shape": [], "dtype": "float32", "quantization": {"dtype": "uint16", "min": 0.007843137718737125, "scale": 1.0, "original_dtype": "float32"}}, {"name": "StatefulPartitionedCall/functional_1_1/MobileNetV3Small_1/rescaling_1/Cast_1/x", "shape": [], "dtype": "float32", "quantization": {"dtype": "uint16", "min": -1.0, "scale": 1.0, "original_dtype": "float32"}}, {"name": "StatefulPartitionedCall/functional_1_1/MobileNetV3Small_1/conv_1/convolution/merged_input", "shape": [3, 3, 3, 16], "dtype": "float32", "quantization": {"dtype": "uint16", "min": -1.9841441696947277, "scale": 6.264465537507428e-05, "original_dtype": "float32"}}, {"name": "StatefulPartitionedCall/functional_1_1/MobileNetV3Small_1/conv_bn_1/batchnorm/sub", "shape": [16], "dtype": "float32", "quantization": {"dtype": "uint16", "min": -0.6306867165597142, "scale": 0.00023306974004424027, "original_dtype": "float32"}}, {"name": "StatefulPartitionedCall/functional_1_1/MobileNetV3Small_1/activation_1/Const", "shape": [], "dtype": "float32", "quantization": {"dtype": "uint16", "min": 3.0, "scale": 1.0, "original_dtype": "float32"}}, {"name": "StatefulPartitionedCall/functional_1_1/MobileNetV3Small_1/expanded_conv_depthwise_pad_1/Const", "shape": [4, 2], "dtype": "int32"}, {"name": "StatefulPartitionedCall/functional_1_1/MobileNetV3Small_1/expanded_conv_depthwise_1/depthwise/ReadVariableOp", "shape": [3, 3, 16, 1], "dtype": "float32", "quantization": {"dtype": "uint16", "min": -31.209282940152747, "scale": 0.0009702568842925059, "original_dtype": "float32"}}, {"name": "StatefulPartitionedCall/functional_1_1/MobileNetV3Small_1/expanded_conv_depthwise_bn_1/batchnorm/mul", "shape": [16], "dtype": "float32", "quantization": {"dtype": "uint16", "min": -2.5096934334950016, "scale": 6.950711589151692e-05, "original_dtype": "float32"}}, {"name": "StatefulPartitionedCall/functional_1_1/MobileNetV3Small_1/expanded_conv_depthwise_bn_1/batchnorm/sub", "shape": [16], "dtype": "float32", "quantization": {"dtype": "uint16", "min": -23.89528363682526, "scale": 0.0006288563513033649, "original_dtype": "float32"}}, {"name": "StatefulPartitionedCall/functional_1_1/MobileNetV3Small_1/expanded_conv_project_1/convolution/merged_input", "shape": [1, 1, 16, 16], "dtype": "float32", "quantization": {"dtype": "uint16", "min": -2.279160282054682, "scale": 7.17732729351183e-05, "original_dtype": "float32"}}, {"name": "StatefulPartitionedCall/functional_1_1/MobileNetV3Small_1/expanded_conv_project_bn_1/batchnorm/sub", "shape": [16], "dtype": "float32", "quantization": {"dtype": "uint16", "min": -52.15357306426492, "scale": 0.00129677191964456, "original_dtype": "float32"}}, {"name": "StatefulPartitionedCall/functional_1_1/MobileNetV3Small_1/expanded_conv_1_expand_1/convolution/merged_input", "shape": [1, 1, 16, 72], "dtype": "float32", "quantization": {"dtype": "uint16", "min": -0.7562750576071239, "scale": 2.324282554573495e-05, "original_dtype": "float32"}}, {"name": "StatefulPartitionedCall/functional_1_1/MobileNetV3Small_1/expanded_conv_1_expand_bn_1/batchnorm/sub", "shape": [72], "dtype": "float32", "quantization": {"dtype": "uint16", "min": -5.5260513946612955, "scale": 0.0005562205731918767, "original_dtype": "float32"}}, {"name": "StatefulPartitionedCall/functional_1_1/MobileNetV3Small_1/expanded_conv_1_depthwise_pad_1/Const", "shape": [4, 2], "dtype": "int32"}, {"name": "StatefulPartitionedCall/functional_1_1/MobileNetV3Small_1/expanded_conv_1_depthwise_1/depthwise/ReadVariableOp", "shape": [3, 3, 72, 1], "dtype": "float32", "quantization": {"dtype": "uint16", "min": -16.454785551253213, "scale": 0.00042664347519324867, "original_dtype": "float32"}}, {"name": "StatefulPartitionedCall/functional_1_1/MobileNetV3Small_1/expanded_conv_1_depthwise_bn_1/batchnorm/mul", "shape": [72], "dtype": "float32", "quantization": {"dtype": "uint16", "min": 0.0424809530377388, "scale": 3.2947657605262373e-05, "original_dtype": "float32"}}, {"name": "StatefulPartitionedCall/functional_1_1/MobileNetV3Small_1/expanded_conv_1_depthwise_bn_1/batchnorm/sub", "shape": [72], "dtype": "float32", "quantization": {"dtype": "uint16", "min": -55.09189457612879, "scale": 0.0014531902238434436, "original_dtype": "float32"}}, {"name": "StatefulPartitionedCall/functional_1_1/MobileNetV3Small_1/expanded_conv_1_project_1/convolution/merged_input", "shape": [1, 1, 72, 24], "dtype": "float32", "quantization": {"dtype": "uint16", "min": -2.400796846165813, "scale": 6.41238473869074e-05, "original_dtype": "float32"}}, {"name": "StatefulPartitionedCall/functional_1_1/MobileNetV3Small_1/expanded_conv_1_project_bn_1/batchnorm/sub", "shape": [24], "dtype": "float32", "quantization": {"dtype": "uint16", "min": -67.59339518862475, "scale": 0.002785748235601086, "original_dtype": "float32"}}, {"name": "StatefulPartitionedCall/functional_1_1/MobileNetV3Small_1/expanded_conv_2_expand_1/convolution/merged_input", "shape": [1, 1, 24, 88], "dtype": "float32", "quantization": {"dtype": "uint16", "min": -0.6078704893302525, "scale": 2.357732097316936e-05, "original_dtype": "float32"}}, {"name": "StatefulPartitionedCall/functional_1_1/MobileNetV3Small_1/expanded_conv_2_expand_bn_1/batchnorm/sub", "shape": [88], "dtype": "float32", "quantization": {"dtype": "uint16", "min": -4.369501281823266, "scale": 0.00020591429226311336, "original_dtype": "float32"}}, {"name": "StatefulPartitionedCall/functional_1_1/MobileNetV3Small_1/expanded_conv_2_depthwise_1/depthwise/ReadVariableOp", "shape": [3, 3, 88, 1], "dtype": "float32", "quantization": {"dtype": "uint16", "min": -10.783315726018493, "scale": 0.00039945603726684544, "original_dtype": "float32"}}, {"name": "StatefulPartitionedCall/functional_1_1/MobileNetV3Small_1/expanded_conv_2_depthwise_bn_1/batchnorm/mul", "shape": [88], "dtype": "float32", "quantization": {"dtype": "uint16", "min": 0.11479059606790543, "scale": 2.2455669858230646e-05, "original_dtype": "float32"}}, {"name": "StatefulPartitionedCall/functional_1_1/MobileNetV3Small_1/expanded_conv_2_depthwise_bn_1/batchnorm/sub", "shape": [88], "dtype": "float32", "quantization": {"dtype": "uint16", "min": -27.42103092068164, "scale": 0.0009359033045729083, "original_dtype": "float32"}}, {"name": "StatefulPartitionedCall/functional_1_1/MobileNetV3Small_1/expanded_conv_2_project_1/convolution/merged_input", "shape": [1, 1, 88, 24], "dtype": "float32", "quantization": {"dtype": "uint16", "min": -2.3904921210584336, "scale": 6.622595636797522e-05, "original_dtype": "float32"}}, {"name": "StatefulPartitionedCall/functional_1_1/MobileNetV3Small_1/expanded_conv_3_expand_1/convolution/merged_input", "shape": [1, 1, 24, 96], "dtype": "float32", "quantization": {"dtype": "uint16", "min": -0.4138288942247031, "scale": 1.2046017762842845e-05, "original_dtype": "float32"}}, {"name": "StatefulPartitionedCall/functional_1_1/MobileNetV3Small_1/expanded_conv_3_expand_bn_1/batchnorm/sub", "shape": [96], "dtype": "float32", "quantization": {"dtype": "uint16", "min": -2.6209822242825873, "scale": 0.00017844377888634173, "original_dtype": "float32"}}, {"name": "StatefulPartitionedCall/functional_1_1/MobileNetV3Small_1/activation_1_2/Const", "shape": [], "dtype": "float32", "quantization": {"dtype": "uint16", "min": 3.0, "scale": 1.0, "original_dtype": "float32"}}, {"name": "StatefulPartitionedCall/functional_1_1/MobileNetV3Small_1/expanded_conv_3_depthwise_pad_1/Const", "shape": [4, 2], "dtype": "int32"}, {"name": "StatefulPartitionedCall/functional_1_1/MobileNetV3Small_1/expanded_conv_3_depthwise_1/depthwise/ReadVariableOp", "shape": [5, 5, 96, 1], "dtype": "float32", "quantization": {"dtype": "uint16", "min": -4.664451716120277, "scale": 0.00015631540603620232, "original_dtype": "float32"}}, {"name": "StatefulPartitionedCall/functional_1_1/MobileNetV3Small_1/expanded_conv_3_depthwise_bn_1/batchnorm/mul", "shape": [96], "dtype": "float32", "quantization": {"dtype": "uint16", "min": -0.20849721167815527, "scale": 0.00010610545123570242, "original_dtype": "float32"}}, {"name": "StatefulPartitionedCall/functional_1_1/MobileNetV3Small_1/expanded_conv_3_depthwise_bn_1/batchnorm/sub", "shape": [96], "dtype": "float32", "quantization": {"dtype": "uint16", "min": -3.0919523651543313, "scale": 0.0002446551958501607, "original_dtype": "float32"}}, {"name": "StatefulPartitionedCall/functional_1_1/MobileNetV3Small_1/activation_2_1/Const", "shape": [], "dtype": "float32", "quantization": {"dtype": "uint16", "min": 3.0, "scale": 1.0, "original_dtype": "float32"}}, {"name": "StatefulPartitionedCall/functional_1_1/MobileNetV3Small_1/expanded_conv_3_project_1/convolution/merged_input", "shape": [1, 1, 96, 40], "dtype": "float32", "quantization": {"dtype": "uint16", "min": -4.805151457992837, "scale": 0.00014426418452002032, "original_dtype": "float32"}}, {"name": "StatefulPartitionedCall/functional_1_1/MobileNetV3Small_1/expanded_conv_3_project_bn_1/batchnorm/sub", "shape": [40], "dtype": "float32", "quantization": {"dtype": "uint16", "min": -21.072620986446033, "scale": 0.0008250830456713403, "original_dtype": "float32"}}, {"name": "StatefulPartitionedCall/functional_1_1/MobileNetV3Small_1/expanded_conv_4_expand_1/convolution/merged_input", "shape": [1, 1, 40, 240], "dtype": "float32", "quantization": {"dtype": "uint16", "min": -0.4439980499875566, "scale": 1.1952138741993018e-05, "original_dtype": "float32"}}, {"name": "StatefulPartitionedCall/functional_1_1/MobileNetV3Small_1/expanded_conv_4_expand_bn_1/batchnorm/sub", "shape": [240], "dtype": "float32", "quantization": {"dtype": "uint16", "min": -5.3040585588388405, "scale": 0.00017073516251975924, "original_dtype": "float32"}}, {"name": "StatefulPartitionedCall/functional_1_1/MobileNetV3Small_1/activation_3_1/Const", "shape": [], "dtype": "float32", "quantization": {"dtype": "uint16", "min": 3.0, "scale": 1.0, "original_dtype": "float32"}}, {"name": "StatefulPartitionedCall/functional_1_1/MobileNetV3Small_1/expanded_conv_4_depthwise_1/depthwise/ReadVariableOp", "shape": [5, 5, 240, 1], "dtype": "float32", "quantization": {"dtype": "uint16", "min": -9.008846364887518, "scale": 0.00028179062761612506, "original_dtype": "float32"}}, {"name": "StatefulPartitionedCall/functional_1_1/MobileNetV3Small_1/expanded_conv_4_depthwise_bn_1/batchnorm/mul", "shape": [240], "dtype": "float32", "quantization": {"dtype": "uint16", "min": -0.5927629043929153, "scale": 0.0002974224307039214, "original_dtype": "float32"}}, {"name": "StatefulPartitionedCall/functional_1_1/MobileNetV3Small_1/expanded_conv_4_depthwise_bn_1/batchnorm/sub", "shape": [240], "dtype": "float32", "quantization": {"dtype": "uint16", "min": -5.676157521688576, "scale": 0.00016541812442992876, "original_dtype": "float32"}}, {"name": "StatefulPartitionedCall/functional_1_1/MobileNetV3Small_1/activation_4_1/Const", "shape": [], "dtype": "float32", "quantization": {"dtype": "uint16", "min": 3.0, "scale": 1.0, "original_dtype": "float32"}}, {"name": "StatefulPartitionedCall/functional_1_1/MobileNetV3Small_1/expanded_conv_4_project_1/convolution/merged_input", "shape": [1, 1, 240, 40], "dtype": "float32", "quantization": {"dtype": "uint16", "min": -16.813939476435195, "scale": 0.0005146441638283247, "original_dtype": "float32"}}, {"name": "StatefulPartitionedCall/functional_1_1/MobileNetV3Small_1/expanded_conv_5_expand_1/convolution/merged_input", "shape": [1, 1, 40, 240], "dtype": "float32", "quantization": {"dtype": "uint16", "min": -0.15625198101064222, "scale": 4.613694186395081e-06, "original_dtype": "float32"}}, {"name": "StatefulPartitionedCall/functional_1_1/MobileNetV3Small_1/expanded_conv_5_expand_bn_1/batchnorm/sub", "shape": [240], "dtype": "float32", "quantization": {"dtype": "uint16", "min": -2.18271942403157, "scale": 0.00010094433815990241, "original_dtype": "float32"}}, {"name": "StatefulPartitionedCall/functional_1_1/MobileNetV3Small_1/activation_5_1/Const", "shape": [], "dtype": "float32", "quantization": {"dtype": "uint16", "min": 3.0, "scale": 1.0, "original_dtype": "float32"}}, {"name": "StatefulPartitionedCall/functional_1_1/MobileNetV3Small_1/expanded_conv_5_depthwise_1/depthwise/ReadVariableOp", "shape": [5, 5, 240, 1], "dtype": "float32", "quantization": {"dtype": "uint16", "min": -8.896337260924916, "scale": 0.0002747818526354372, "original_dtype": "float32"}}, {"name": "StatefulPartitionedCall/functional_1_1/MobileNetV3Small_1/expanded_conv_5_depthwise_bn_1/batchnorm/mul", "shape": [240], "dtype": "float32", "quantization": {"dtype": "uint16", "min": 0.015071673318743706, "scale": 0.00019289524746134889, "original_dtype": "float32"}}, {"name": "StatefulPartitionedCall/functional_1_1/MobileNetV3Small_1/expanded_conv_5_depthwise_bn_1/batchnorm/sub", "shape": [240], "dtype": "float32", "quantization": {"dtype": "uint16", "min": -14.349449796117106, "scale": 0.00032349910490152864, "original_dtype": "float32"}}, {"name": "StatefulPartitionedCall/functional_1_1/MobileNetV3Small_1/activation_6_1/Const", "shape": [], "dtype": "float32", "quantization": {"dtype": "uint16", "min": 3.0, "scale": 1.0, "original_dtype": "float32"}}, {"name": "StatefulPartitionedCall/functional_1_1/MobileNetV3Small_1/expanded_conv_5_project_1/convolution/merged_input", "shape": [1, 1, 240, 40], "dtype": "float32", "quantization": {"dtype": "uint16", "min": -30.985812025593336, "scale": 0.0009478682173629042, "original_dtype": "float32"}}, {"name": "StatefulPartitionedCall/functional_1_1/MobileNetV3Small_1/expanded_conv_6_expand_1/convolution/merged_input", "shape": [1, 1, 40, 120], "dtype": "float32", "quantization": {"dtype": "uint16", "min": -0.14548373189995306, "scale": 6.611995268824845e-06, "original_dtype": "float32"}}, {"name": "StatefulPartitionedCall/functional_1_1/MobileNetV3Small_1/expanded_conv_6_expand_bn_1/batchnorm/sub", "shape": [120], "dtype": "float32", "quantization": {"dtype": "uint16", "min": -1.3814381396423954, "scale": 0.00011297335129558353, "original_dtype": "float32"}}, {"name": "StatefulPartitionedCall/functional_1_1/MobileNetV3Small_1/activation_7_1/Const", "shape": [], "dtype": "float32", "quantization": {"dtype": "uint16", "min": 3.0, "scale": 1.0, "original_dtype": "float32"}}, {"name": "StatefulPartitionedCall/functional_1_1/MobileNetV3Small_1/expanded_conv_6_depthwise_1/depthwise/ReadVariableOp", "shape": [5, 5, 120, 1], "dtype": "float32", "quantization": {"dtype": "uint16", "min": -11.229097502104448, "scale": 0.0003793742187947042, "original_dtype": "float32"}}, {"name": "StatefulPartitionedCall/functional_1_1/MobileNetV3Small_1/expanded_conv_6_depthwise_bn_1/batchnorm/mul", "shape": [120], "dtype": "float32", "quantization": {"dtype": "uint16", "min": 0.026290936395525932, "scale": 5.9011513558434177e-05, "original_dtype": "float32"}}, {"name": "StatefulPartitionedCall/functional_1_1/MobileNetV3Small_1/expanded_conv_6_depthwise_bn_1/batchnorm/sub", "shape": [120], "dtype": "float32", "quantization": {"dtype": "uint16", "min": -4.659123286413657, "scale": 0.0002102207862840616, "original_dtype": "float32"}}, {"name": "StatefulPartitionedCall/functional_1_1/MobileNetV3Small_1/activation_8_1/Const", "shape": [], "dtype": "float32", "quantization": {"dtype": "uint16", "min": 3.0, "scale": 1.0, "original_dtype": "float32"}}, {"name": "StatefulPartitionedCall/functional_1_1/MobileNetV3Small_1/expanded_conv_6_project_1/convolution/merged_input", "shape": [1, 1, 120, 48], "dtype": "float32", "quantization": {"dtype": "uint16", "min": -3.913345579094369, "scale": 0.00015915025332849522, "original_dtype": "float32"}}, {"name": "StatefulPartitionedCall/functional_1_1/MobileNetV3Small_1/expanded_conv_6_project_bn_1/batchnorm/sub", "shape": [48], "dtype": "float32", "quantization": {"dtype": "uint16", "min": -56.55329265537729, "scale": 0.0012630551123479015, "original_dtype": "float32"}}, {"name": "StatefulPartitionedCall/functional_1_1/MobileNetV3Small_1/expanded_conv_7_expand_1/convolution/merged_input", "shape": [1, 1, 48, 144], "dtype": "float32", "quantization": {"dtype": "uint16", "min": -0.2487724303519361, "scale": 6.6843762353745895e-06, "original_dtype": "float32"}}, {"name": "StatefulPartitionedCall/functional_1_1/MobileNetV3Small_1/expanded_conv_7_expand_bn_1/batchnorm/sub", "shape": [144], "dtype": "float32", "quantization": {"dtype": "uint16", "min": -2.532061678650014, "scale": 0.0001312697225698592, "original_dtype": "float32"}}, {"name": "StatefulPartitionedCall/functional_1_1/MobileNetV3Small_1/activation_9_1/Const", "shape": [], "dtype": "float32", "quantization": {"dtype": "uint16", "min": 3.0, "scale": 1.0, "original_dtype": "float32"}}, {"name": "StatefulPartitionedCall/functional_1_1/MobileNetV3Small_1/expanded_conv_7_depthwise_1/depthwise/ReadVariableOp", "shape": [5, 5, 144, 1], "dtype": "float32", "quantization": {"dtype": "uint16", "min": -8.219630049305831, "scale": 0.00023609450091356687, "original_dtype": "float32"}}, {"name": "StatefulPartitionedCall/functional_1_1/MobileNetV3Small_1/expanded_conv_7_depthwise_bn_1/batchnorm/mul", "shape": [144], "dtype": "float32", "quantization": {"dtype": "uint16", "min": 0.038558974862098694, "scale": 0.00019871286858571535, "original_dtype": "float32"}}, {"name": "StatefulPartitionedCall/functional_1_1/MobileNetV3Small_1/expanded_conv_7_depthwise_bn_1/batchnorm/sub", "shape": [144], "dtype": "float32", "quantization": {"dtype": "uint16", "min": -5.906037608966171, "scale": 0.0002499063855188157, "original_dtype": "float32"}}, {"name": "StatefulPartitionedCall/functional_1_1/MobileNetV3Small_1/activation_10_1/Const", "shape": [], "dtype": "float32", "quantization": {"dtype": "uint16", "min": 3.0, "scale": 1.0, "original_dtype": "float32"}}, {"name": "StatefulPartitionedCall/functional_1_1/MobileNetV3Small_1/expanded_conv_7_project_1/convolution/merged_input", "shape": [1, 1, 144, 48], "dtype": "float32", "quantization": {"dtype": "uint16", "min": -18.13944344654812, "scale": 0.0005563563810130083, "original_dtype": "float32"}}, {"name": "StatefulPartitionedCall/functional_1_1/MobileNetV3Small_1/expanded_conv_8_expand_1/convolution/merged_input", "shape": [1, 1, 48, 288], "dtype": "float32", "quantization": {"dtype": "uint16", "min": -0.2388360689781783, "scale": 6.783959239282461e-06, "original_dtype": "float32"}}, {"name": "StatefulPartitionedCall/functional_1_1/MobileNetV3Small_1/expanded_conv_8_expand_bn_1/batchnorm/sub", "shape": [288], "dtype": "float32", "quantization": {"dtype": "uint16", "min": -2.678962198660395, "scale": 0.00012275303329638908, "original_dtype": "float32"}}, {"name": "StatefulPartitionedCall/functional_1_1/MobileNetV3Small_1/activation_11_1/Const", "shape": [], "dtype": "float32", "quantization": {"dtype": "uint16", "min": 3.0, "scale": 1.0, "original_dtype": "float32"}}, {"name": "StatefulPartitionedCall/functional_1_1/MobileNetV3Small_1/expanded_conv_8_depthwise_pad_1/Const", "shape": [4, 2], "dtype": "int32"}, {"name": "StatefulPartitionedCall/functional_1_1/MobileNetV3Small_1/expanded_conv_8_depthwise_1/depthwise/ReadVariableOp", "shape": [5, 5, 288, 1], "dtype": "float32", "quantization": {"dtype": "uint16", "min": -3.069586909262041, "scale": 8.887049534632428e-05, "original_dtype": "float32"}}, {"name": "StatefulPartitionedCall/functional_1_1/MobileNetV3Small_1/expanded_conv_8_depthwise_bn_1/batchnorm/mul", "shape": [288], "dtype": "float32", "quantization": {"dtype": "uint16", "min": 0.04543915390968323, "scale": 0.00013805798310259255, "original_dtype": "float32"}}, {"name": "StatefulPartitionedCall/functional_1_1/MobileNetV3Small_1/expanded_conv_8_depthwise_bn_1/batchnorm/sub", "shape": [288], "dtype": "float32", "quantization": {"dtype": "uint16", "min": -2.2455368038463295, "scale": 0.00018011845703427685, "original_dtype": "float32"}}, {"name": "StatefulPartitionedCall/functional_1_1/MobileNetV3Small_1/activation_12_1/Const", "shape": [], "dtype": "float32", "quantization": {"dtype": "uint16", "min": 3.0, "scale": 1.0, "original_dtype": "float32"}}, {"name": "StatefulPartitionedCall/functional_1_1/MobileNetV3Small_1/expanded_conv_8_project_1/convolution/merged_input", "shape": [1, 1, 288, 96], "dtype": "float32", "quantization": {"dtype": "uint16", "min": -2.3849913875853126, "scale": 7.361766174600464e-05, "original_dtype": "float32"}}, {"name": "StatefulPartitionedCall/functional_1_1/MobileNetV3Small_1/expanded_conv_8_project_bn_1/batchnorm/sub", "shape": [96], "dtype": "float32", "quantization": {"dtype": "uint16", "min": -6.987299235250726, "scale": 0.0002605256985552098, "original_dtype": "float32"}}, {"name": "StatefulPartitionedCall/functional_1_1/MobileNetV3Small_1/expanded_conv_9_expand_1/convolution/merged_input", "shape": [1, 1, 96, 576], "dtype": "float32", "quantization": {"dtype": "uint16", "min": -0.2702723156526358, "scale": 7.414471514666845e-06, "original_dtype": "float32"}}, {"name": "StatefulPartitionedCall/functional_1_1/MobileNetV3Small_1/expanded_conv_9_expand_bn_1/batchnorm/sub", "shape": [576], "dtype": "float32", "quantization": {"dtype": "uint16", "min": -3.1858980617579946, "scale": 0.00011150420207748827, "original_dtype": "float32"}}, {"name": "StatefulPartitionedCall/functional_1_1/MobileNetV3Small_1/activation_13_1/Const", "shape": [], "dtype": "float32", "quantization": {"dtype": "uint16", "min": 3.0, "scale": 1.0, "original_dtype": "float32"}}, {"name": "StatefulPartitionedCall/functional_1_1/MobileNetV3Small_1/expanded_conv_9_depthwise_1/depthwise/ReadVariableOp", "shape": [5, 5, 576, 1], "dtype": "float32", "quantization": {"dtype": "uint16", "min": -6.420883898052188, "scale": 0.0001841694555430297, "original_dtype": "float32"}}, {"name": "StatefulPartitionedCall/functional_1_1/MobileNetV3Small_1/expanded_conv_9_depthwise_bn_1/batchnorm/mul", "shape": [576], "dtype": "float32", "quantization": {"dtype": "uint16", "min": 0.06141868606209755, "scale": 0.00027419579208029065, "original_dtype": "float32"}}, {"name": "StatefulPartitionedCall/functional_1_1/MobileNetV3Small_1/expanded_conv_9_depthwise_bn_1/batchnorm/sub", "shape": [576], "dtype": "float32", "quantization": {"dtype": "uint16", "min": -10.359592824976513, "scale": 0.000294884655289531, "original_dtype": "float32"}}, {"name": "StatefulPartitionedCall/functional_1_1/MobileNetV3Small_1/activation_14_1/Const", "shape": [], "dtype": "float32", "quantization": {"dtype": "uint16", "min": 3.0, "scale": 1.0, "original_dtype": "float32"}}, {"name": "StatefulPartitionedCall/functional_1_1/MobileNetV3Small_1/expanded_conv_9_project_1/convolution/merged_input", "shape": [1, 1, 576, 96], "dtype": "float32", "quantization": {"dtype": "uint16", "min": -12.761535220656596, "scale": 0.0003948006193743533, "original_dtype": "float32"}}, {"name": "StatefulPartitionedCall/functional_1_1/MobileNetV3Small_1/expanded_conv_10_expand_1/convolution/merged_input", "shape": [1, 1, 96, 576], "dtype": "float32", "quantization": {"dtype": "uint16", "min": -0.4161369394362905, "scale": 1.1750965448741719e-05, "original_dtype": "float32"}}, {"name": "StatefulPartitionedCall/functional_1_1/MobileNetV3Small_1/expanded_conv_10_expand_bn_1/batchnorm/sub", "shape": [576], "dtype": "float32", "quantization": {"dtype": "uint16", "min": -20.82865150780102, "scale": 0.00036479414869084224, "original_dtype": "float32"}}, {"name": "StatefulPartitionedCall/functional_1_1/MobileNetV3Small_1/activation_15_1/Const", "shape": [], "dtype": "float32", "quantization": {"dtype": "uint16", "min": 3.0, "scale": 1.0, "original_dtype": "float32"}}, {"name": "StatefulPartitionedCall/functional_1_1/MobileNetV3Small_1/expanded_conv_10_depthwise_1/depthwise/ReadVariableOp", "shape": [5, 5, 576, 1], "dtype": "float32", "quantization": {"dtype": "uint16", "min": -7.7755141122904865, "scale": 0.00028298264411291213, "original_dtype": "float32"}}, {"name": "StatefulPartitionedCall/functional_1_1/MobileNetV3Small_1/expanded_conv_10_depthwise_bn_1/batchnorm/mul", "shape": [576], "dtype": "float32", "quantization": {"dtype": "uint16", "min": 0.07592852413654327, "scale": 0.0004075242103424008, "original_dtype": "float32"}}, {"name": "StatefulPartitionedCall/functional_1_1/MobileNetV3Small_1/expanded_conv_10_depthwise_bn_1/batchnorm/sub", "shape": [576], "dtype": "float32", "quantization": {"dtype": "uint16", "min": -20.303283658693047, "scale": 0.0005690701176829712, "original_dtype": "float32"}}, {"name": "StatefulPartitionedCall/functional_1_1/MobileNetV3Small_1/activation_16_1/Const", "shape": [], "dtype": "float32", "quantization": {"dtype": "uint16", "min": 3.0, "scale": 1.0, "original_dtype": "float32"}}, {"name": "StatefulPartitionedCall/functional_1_1/MobileNetV3Small_1/expanded_conv_10_project_1/convolution/merged_input", "shape": [1, 1, 576, 96], "dtype": "float32", "quantization": {"dtype": "uint16", "min": -12.935618523495634, "scale": 0.0004541044205397611, "original_dtype": "float32"}}, {"name": "StatefulPartitionedCall/functional_1_1/MobileNetV3Small_1/conv_1_2/convolution/merged_input", "shape": [1, 1, 96, 576], "dtype": "float32", "quantization": {"dtype": "uint16", "min": -1.657888617504286, "scale": 4.9221798512685887e-05, "original_dtype": "float32"}}, {"name": "StatefulPartitionedCall/functional_1_1/MobileNetV3Small_1/conv_1_bn_1/batchnorm/sub", "shape": [576], "dtype": "float32", "quantization": {"dtype": "uint16", "min": -18.674966342565423, "scale": 0.0004365043672151421, "original_dtype": "float32"}}, {"name": "StatefulPartitionedCall/functional_1_1/MobileNetV3Small_1/activation_17_1/Const", "shape": [], "dtype": "float32", "quantization": {"dtype": "uint16", "min": 3.0, "scale": 1.0, "original_dtype": "float32"}}, {"name": "StatefulPartitionedCall/functional_1_1/global_average_pooling2d_1/Mean/reduction_indices", "shape": [2], "dtype": "int32"}, {"name": "StatefulPartitionedCall/functional_1_1/dense_1/Cast/ReadVariableOp", "shape": [576, 128], "dtype": "float32", "quantization": {"dtype": "uint16", "min": -0.16020762673516273, "scale": 4.846992004815379e-06, "original_dtype": "float32"}}, {"name": "StatefulPartitionedCall/functional_1_1/dense_1/BiasAdd/ReadVariableOp", "shape": [128], "dtype": "float32", "quantization": {"dtype": "uint16", "min": -0.014150404638730933, "scale": 5.586200560076955e-07, "original_dtype": "float32"}}, {"name": "StatefulPartitionedCall/functional_1_1/dense_1_2/Cast/ReadVariableOp", "shape": [128, 7], "dtype": "float32", "quantization": {"dtype": "uint16", "min": -0.4061783127411103, "scale": 1.0260655604029463e-05, "original_dtype": "float32"}}, {"name": "StatefulPartitionedCall/functional_1_1/dense_1_2/BiasAdd/ReadVariableOp", "shape": [7], "dtype": "float32", "quantization": {"dtype": "uint16", "min": -0.05039472808657672, "scale": 1.1221271005695105e-06, "original_dtype": "float32"}}]}]}